checkpoint/x4/ckpt.pt (torch, 312241 bytes, 60 tensors)

feature_extract.weight f4 [56, 3, 5, 5]
0.15646715 0.5006271 0.038025107 -0.23359796 -0.26502937 0.42403603 -0.53547144 -0.775096
-0.22266968 0.39822838 -0.33336 0.04636894 -0.09364028 0.8093658 0.062825195 0.04314453
0.19794935 0.35040605 -0.08286801 -0.120332584 0.027479477 0.07852517 -0.2562437 -0.09806677
-0.0148710245 -0.56712687 -0.2663378 0.16369325 0.44022104 -0.13053326 0.30067804 -0.07543284
0.91915184 0.35248253 -0.31543526 0.52410746 0.030865017 -0.027137756 -0.96197206 -0.09576325
-0.23654242 -0.07498332 0.17331482 -0.3790749 0.002149213 -0.12785539 0.38914394 -0.44236988
-0.109313115 0.28282204 0.07732416 0.46587512 -0.115888946 -0.35252112 0.34755033 -0.29761332
0.14046523 -0.2823682 0.030846542 -0.11906334 -0.10373276 -0.28845263 0.26684356 0.0013076368
0.44248328 0.13856739 -0.18510833 0.3591293 0.059456408 -0.44809315 0.32320493 -0.45136625
0.3341147 0.24067163 -0.26445144 0.22617099 0.13373013 0.11884358 -0.07723872 -0.09600704
-0.2662225 -0.14861527 0.48762646 0.65851426 -0.5780524 -0.29364508 0.25214586 -1.1319224
0.54763776 0.5374625 0.26241603 -0.21355146 0.1494729 -0.78684896 0.27162758 -0.022991981
0.06478564 0.06730488 0.18694909 -0.34075725 -0.14851327 -0.11958888 0.005590282 0.4539275
-0.18132752 0.34248987 -0.36108232 -0.44491196 -0.0076852744 0.3047183 -0.18169233 0.21316491
0.09984409 -0.23620848 -0.107156746 0.17364816 0.22157629 0.03415042 0.029349491 -0.1782311
-0.21494918 -0.10133143 -0.03673996 0.14755328 0.14081736 0.013615555 0.04423604 -0.47022083
-0.07331171 0.26235625 0.18086778 0.22485678 -0.01179889 -0.23250602 -0.092046514 -0.29045236
-0.17447196 0.080140956 -0.3894818 -0.17096716 0.22876124 -0.0018392166 0.057101093 0.1867259
-0.046951864 -0.039258 0.082379885 -0.08811954 -0.09810127 0.19992532 -0.31830943 0.49548814
-0.018467655 -0.5121182 -0.30646312 0.078417666 -0.19032528 -0.084945954 0.62405527 -0.37747532
-0.33836582 -0.080887936 -1.0519522 -1.0110397 -0.4887983 0.43832588 0.45742643 1.0262226
0.3804093 0.116642095 -0.57980686 0.12258571 0.3947542 -0.30141258 -0.17799228 0.28643802
0.09269941 0.14945148 0.10696016 0.43255478 0.4373924 0.029497985 -0.39663276 -0.32316902
-0.36063677 -0.36042735 0.2910284 0.2309096 -0.0029987495 0.36440873 0.0574518 0.32894567
-0.6413645 0.13048008 0.4267278 -0.32462448 0.21508768 -0.4458871 0.0688582 0.10909747
-0.42208147 0.009366802 0.34910992 -0.41141382 -0.722821 0.6215032 0.37567112 0.20242143
0.058028415 0.057616048 -0.049270943 -0.06882913 -0.48408872 0.2630861 0.006836194 -0.07730353
0.036707405 -0.20781583 -0.34844506 -0.088096604 -0.17257078 0.09217401 0.54352784 0.042276114
0.08124764 0.06697468 -0.24629214 0.007867502 -0.12647128 0.020341499 -0.4137678 -0.32205564
0.32930538 0.056150734 0.11407961 -0.8633024 0.10559467 0.9399241 0.27855128 -0.24130245
0.22563475 0.3941971 -0.13404952 0.25200647 -0.11263244 0.41520715 -0.071915805 -0.47060627
-0.046300165 -0.21253274 -0.10571832 0.195781 0.19474025 0.37454623 -0.5623351 0.67347264
00000000: ed38 203e 1929 003f 37c0 1b3d 4e34 6fbe
00000010: eeb1 87be 401b d93e a814 09bf b16c 46bf
00000020: 8503 64be 97e4 cb3e 29ae aabe 5ced 3d3d
00000030: 7ac6 bfbd 9932 4f3f 7faa 803d 52b8 303d
00000040: 3cb3 4a3e 6c68 b33e b4b6 a9bd ee70 f6bd
00000050: a41c e13c ced1 a03d 6032 83be 3bd7 c8bd
00000060: 99a5 73bc 3a2f 11bf 6e5d 88be 349f 273e
00000070: a764 e13e 83aa 05be 79f2 993e 887c 9abd
00000080: 894d 6b3f 9778 b43e bb80 a1be e82b 063f
00000090: a2d8 fc3c 0050 debc cd43 76bf 861f c4bd
000000a0: 2d38 72be db90 99bd 7179 313e 1b16 c2be
000000b0: d0d9 0c3b 86ec 02be e03d c73e 4e7e e2be
000000c0: 8edf dfbd 0dce 903e 215c 9e3d 2f87 ee3e
000000d0: 2f57 edbd a67d b4be 1ef2 b13e c660 98be
000000e0: 1ed6 0f3e 9192 90be e3b1 fc3c 7bd7 f3bd
000000f0: d771 d4bd 10b0 93be b89f 883e 0365 ab3a
00000100: 2b8d e23e 9ce4 0d3e 0a8d 3dbe ccdf b73e
00000110: 9088 733d 776c e5be 1e7b a53e 7a19 e7be
00000120: 1511 ab3e a072 763e 2e66 87be 5e99 673e
00000130: 8df0 083e 4364 f33d 562f 9ebd 579f c4bd
00000140: 514e 88be 9a2e 18be 2daa f93e 6494 283f
00000150: 3efb 13bf a658 96be 4319 813e d5e2 90bf
00000160: fd31 0c3f 2497 093f 655b 863e 3cad 5abe
00000170: 6d0f 193e ef6e 49bf c512 8b3e ae59 bcbc
00000180: 55ae 843d 24d7 893d 956f 3f3e bc77 aebe
00000190: dd13 18be 04eb f4bd af2e b73b 2f69 e83e
000001a0: ecad 39be d55a af3e c8df b8be 80cb e3be
000001b0: c1d4 fbbb 0904 9c3e 8e0d 3abe e747 5a3e
000001c0: 0f7b cc3d a3e0 71be ff74 dbbd d3d0 313e
000001d0: e5e4 623e 50e1 0b3d 586e f03c 3782 36be
000001e0: a31b 5cbe da86 cfbd a47c 16bd 3518 173e
000001f0: 6d32 103e c713 5f3c da30 353d c9c0 f0be
00000200: 7324 96bd 8f53 863e 6735 393e db40 663e
00000210: 2250 41bc 0f16 6ebe e282 bcbd 2cb6 94be
00000220: c7a8 32be f120 a43d 296a c7be 0412 2fbe
00000230: 6340 6a3e de11 f1ba d6e2 693d 1335 3f3e
00000240: 9950 40bd ffcc 20bd c9b6 a83d 0478 b4bd
00000250: 52e9 c8bd 39b9 4c3e 74f9 a2be 9fb0 fd3e
00000260: 7b49 97bc 2e1a 03bf bce8 9cbe 7199 a03d
00000270: a1e4 42be 25f8 adbd 16c2 1f3f 7244 c1be
00000280: 493e adbe 93a8 a5bd 5fa6 86bf c069 81bf
00000290: c543 fabe 406c e03e cc33 ea3e 435b 833f
000002a0: 02c5 c23e 0de2 ee3d 396e 14bf 370e fb3d
000002b0: 391d ca3e c052 9abe 9c43 36be 01a8 923e
000002c0: 30d9 bd3d cf09 193e ee0d db3d d277 dd3e
000002d0: e6f1 df3e c2a5 f13c 7313 cbbe 6976 a5be
000002e0: 62a5 b8be ef89 b8be ad01 953e 9173 6c3e
000002f0: ab86 44bb c893 ba3e 9452 6b3d 916b a83e
00000300: 7730 24bf 929c 053e 117c da3e 2e35 a6be
00000310: f23f 5c3e 504b e4be 8705 8d3d 7f6e df3d
00000320: 101b d8be 3777 193c 89be b23e d5a4 d2be
00000330: cc0a 39bf d51a 1f3f f757 c03e 9047 4f3e
00000340: 34af 6d3d cefe 6b3d 54d0 49bd 49f6 8cbd
00000350: 7ada f7be 39b3 863e 2702 e03b 5051 9ebd
00000360: 815a 163d accd 54be 6467 b2be fe6b b4bd
00000370: 65b6 30be bac5 bc3d a424 0b3f b829 2d3d
00000380: 2a65 a63d 052a 893d 0234 7cbe b2e6 003c
00000390: b081 01be 37a3 a63c 60d9 d3be 7ae4 a4be
000003a0: b79a a83e 50fe 653d 92a2 e93d 6301 5dbf
000003b0: 0542 d83d de9e 703f 469e 8e3e fd17 77be
000003c0: cc0c 673e 34d4 c93e 4744 09be fe06 813e
000003d0: d6ab e6bd 0896 d43e 9848 93bd 4ef3 f0be
000003e0: 3ea5 3dbd 2fa2 59be d982 d8bd d17a 483e
000003f0: fd69 473e 86c4 bf3e 31f5 0fbf b468 2c3f

feature_extract.bias f4 [56]
-0.32558474 0.15616828 -1.0439682 0.009503763 -0.4625545 -0.26191333 -0.40109667 -0.1928308
0.28895625 -0.13333265 -0.26072058 -0.0927735 -0.12504861 -0.4088298 -0.29975015 -0.117633216
0.44685698 -0.4010131 0.24658197 -0.106049456 0.4698686 0.012946462 0.28341737 -0.2404287
0.15539227 0.18726733 -0.38086927 0.35012186 -0.38931915 0.19266164 -0.42710897 0.26788136
-0.48989883 -0.3601386 -0.58501256 0.38479564 -0.086559005 0.3101051 -0.05003459 0.12589097
0.29955098 0.0048668426 -0.34691486 -0.39755952 0.43253207 0.0459729 -0.18927258 -0.18790045
0.126897 0.22013053 -0.06071695 -0.39477733 0.28324094 -0.08412571 0.1830001 0.11217145
00000000: 0bb3 a6be 94ea 1f3e c0a0 85bf acb5 1b3c
00000010: f2d3 ecbe 8119 86be 8b5c cdbe 7075 45be
00000020: 13f2 933e 5b88 08be 2b7d 85be 0800 bebd
00000030: be0c 00be 2452 d1be da78 99be afe9 f0bd
00000040: 70ca e43e 9751 cdbe fc7f 7c3e 7530 d9bd
00000050: 9e92 f03e 661d 543c 151c 913e f132 76be
00000060: 271f 1f3e 02c3 3f3e 4c01 c3be 2c43 b33e
00000070: d754 c7be 1849 453e 07ae dabe bf27 893e
00000080: 05d4 fabe 1664 b8be 62c3 15bf ef03 c53e
00000090: d945 b1bd 18c6 9e3e 12f1 4cbd 90e9 003e
000000a0: bf5e 993e 097a 9f3b d39e b1be ec8c cbbe
000000b0: d874 dd3e 144e 3c3d acd0 41be fa68 40be
000000c0: 4af1 013e e669 613e 56b2 78bd 4120 cabe
000000d0: f504 913e 1a4a acbd 6164 3b3e 25ba e53d

activation_1.weight f4 [56]
-0.4433521 0.0963977 0.0057961578 -0.54613173 1.0652338 0.011719196 0.0039054789 -0.044338018
0.9076237 0.98776984 -0.017679406 -0.23229295 -0.19351842 0.97158056 1.0045046 -0.61922914
0.29077908 -0.11957063 0.09945308 0.19291024 0.06448217 -0.20448525 -0.43141058 -0.0013261728
2.095436 -0.026751993 1.1258826 0.15441406 0.9535164 -0.17649208 0.9923549 0.20277973
-0.29471007 0.92443365 -0.0013825163 0.20744033 1.033048 0.12018553 0.012720761 -0.80063474
0.9699192 0.9921552 -0.05868888 1.0157537 0.9944368 0.07514195 1.0063465 1.0232012
1.0222883 0.009425542 -0.016133023 -0.009577531 0.99345905 0.002887516 -0.07998217 1.0570984
00000000: 0cff e2be 286c c53d b2ed bd3b 4acf 0bbf
00000010: 9559 883f df01 403c 10f3 7f3b c89b 35bd
00000020: 075a 683f 7cde 7c3f 67d4 90bc 34de 6dbe
00000030: b129 46be 81b9 783f 9b93 803f cd85 1ebf
00000040: ffe0 943e 72e1 f4bd 0eae cb3d 438a 453e
00000050: 3a0f 843d 9564 51be d9e1 dcbe fad2 adba
00000060: a01b 0640 ff26 dbbc ec1c 903f b81e 1e3e
00000070: a719 743f 57ba 34be f90a 7e3f 7da5 4f3e
00000080: 3de4 96be afa7 6c3f 8d35 b5ba 3d6b 543e
00000090: eb3a 843f d523 f63d bd6a 503c 66f6 4cbf
000000a0: a04c 783f e2fd 7d3f c063 70bd 3804 823f
000000b0: 6993 7e3f 06e4 993d f6cf 803f 42f8 823f
000000c0: 58da 823f 976d 1a3c 6729 84bc 14eb 1cbc
000000d0: 5553 7e3f 7b3c 3d3b b1cd a3bd 004f 873f

shrink.weight f4 [12, 56, 1, 1]
0.0813194 0.03789111 0.40463275 0.03596001 0.17282562 0.0058736703 -0.064063095 -0.103381
-0.032092012 -0.052120775 0.17679837 0.09816652 0.06379531 -0.01103434 -0.036897987 0.11073785
0.07832781 -0.11154433 0.08851513 -0.12446668 -0.1982377 0.06389659 -0.13746206 -0.6621649
-0.0207752 0.029008059 -0.08240818 0.10550389 0.072027296 0.0668468 0.0054713446 0.24941558
0.008716572 0.015231716 0.39287037 0.05142125 -0.15936585 0.5372695 0.32057187 -0.027409337
-0.04880117 0.10328729 -0.22520098 -0.11476253 -0.13787468 0.58554107 -0.07032749 0.15962714
0.06776239 0.12493799 -0.31524262 0.11721921 -0.1982211 -0.28180468 0.18966466 -0.348776
-0.32355446 -0.30546477 -1.8137017 -0.32272643 0.20704871 1.0499092 0.087428465 0.15537672
0.11753536 0.030870136 -0.03331481 -0.3896129 0.06591617 0.37806162 0.16251443 -0.2318188
0.28085184 -0.20917895 0.24556968 -0.04118407 0.22152278 -0.3450864 0.20133519 -0.59993553
-0.14903101 0.385216 0.10235316 -0.13614649 0.009633475 -0.07080692 -0.17656054 0.14797927
0.07453775 -0.19754426 0.16704467 -0.04274687 -0.27137434 -0.030718071 0.119293064 -0.23274246
-0.26916108 0.013406765 0.045808204 -0.37278202 -0.2655847 -0.028569913 0.04078215 0.0059985663
-0.08473488 0.23708744 0.10644168 0.6441563 -0.18231273 -0.2339853 0.01550923 0.06897031
0.0021872756 -0.019838156 -0.10959442 0.015614652 0.05744273 0.17029211 0.0507573 -0.012971585
-0.04558127 0.029913293 0.026395109 0.018307844 -0.011712929 0.07596347 0.27664638 0.006450538
-0.1641341 0.04408632 -0.37613252 -0.013455335 -0.024711238 0.014476527 -0.009687072 -0.36577833
-0.01019094 -0.014748104 0.02659052 0.03507205 0.051868647 -0.008652881 0.06009193 -0.10694866
-0.012060782 -0.03888131 -0.116186805 -0.20709169 0.003884745 -0.08600468 0.1280306 0.00019319779
-0.01315271 -0.11626322 0.02591894 -0.039960507 -0.10839053 0.026578885 -0.10299985 -0.00055618
0.13650113 0.03225511 -0.110601515 -0.03420614 -0.13084584 -0.03682265 -0.029992752 -0.027835289
-0.0033997921 -0.029846106 0.085308574 -0.0106937075 0.024350783 -0.07596281 -0.042490855 0.00913283
0.031573243 -0.014824463 -0.042717747 -0.037245553 0.08580514 0.113436095 0.02972415 -0.004852074
-0.14227316 -0.007880154 -0.23245509 0.004351958 0.0346248 -0.0033978268 -0.012220845 0.15089454
0.0001474948 0.04319669 -0.016153364 -0.20381643 -0.029317321 0.055829246 0.1467498 0.20781483
0.007252682 0.11984405 0.36985916 0.26069906 0.017824704 -0.13326754 0.011124128 -0.0034145718
-0.06970072 -0.10375854 6.710805e-05 0.30440703 -0.21954659 -0.11081151 -0.040518083 0.06297637
-0.087083064 0.07110535 -0.08892759 0.010697222 0.06878596 -0.0027563332 0.019645141 0.3733577
-0.032078285 0.13618484 -0.38551903 -0.03250863 0.10199593 -0.29956317 0.21578234 -0.005303379
-0.052132197 0.18853465 0.11982989 0.16631444 0.06737958 0.040058598 0.025746634 0.041550715
-0.1010805 -0.1246287 -0.0935871 0.058864094 0.17346343 -0.008649212 0.011791797 0.27790868
0.05877592 -0.3454184 0.07067877 -0.105305985 0.08607912 -0.0842234 -0.056653593 0.1899901
00000000: c98a a63d b533 1b3d 062c cf3e ce4a 133d
00000010: 33f9 303e eb77 c03b 8333 83bd 6bb9 d3bd
00000020: ea72 03bd 987c 55bd a20a 353e 870b c93d
00000030: 1ea7 823d 60c9 34bc 5822 17bd 87ca e23d
00000040: 556a a03d 5b71 e4bd 6c47 b53d 63e8 febd
00000050: d3fe 4abe 37dc 823d dbc2 0cbe a483 29bf
00000060: c130 aabc 4fa2 ed3c 9fc5 a8bd 6c12 d83d
00000070: 0c83 933d fae6 883d f748 b33b cc66 7f3e
00000080: f4cf 0e3c 738e 793c 4e26 c93e 179f 523d
00000090: cd30 23be 7e8a 093f ff21 a43e 8c89 e0bc
000000a0: bce3 47bd 4988 d33d 169b 66be 9e08 ebbd
000000b0: 052f 0dbe 05e6 153f dc07 90bd 4c75 233e
000000c0: 02c7 8a3d 7ddf ff3d 7b67 a1be a010 f03d
000000d0: 79fa 4abe b448 90be 7437 423e c592 b2be
000000e0: eea8 a5be e165 9cbe 6127 e8bf 663c a5be
000000f0: 9404 543e 6d63 863f b20d b33d 131b 1f3e
00000100: 61b6 f03d 5ee3 fc3c 1c75 08bd 587b c7be
00000110: 0fff 863d 4b91 c13e 2f6a 263e e861 6dbe
00000120: d0cb 8f3e 0233 56be 9e76 7b3e a1b0 28bd
00000130: ded6 623e 2aaf b0be d02a 4e3e 6095 19bf
00000140: 969b 18be 083b c53e 899e d13d fc69 0bbe
00000150: b9d5 1d3c 3803 91bd 49cc 34be e187 173e
00000160: 3fa7 983d 0b49 4abe c20d 2b3e 5817 2fbd
00000170: 94f1 8abe 77a4 fbbc ec4f f43d 0a54 6ebe
00000180: 7bcf 89be 0ca8 5b3c 62a1 3b3d 49dd bebe
00000190: b8fa 87be 730b eabc 2f0b 273d 9f8f c43b
000001a0: 7b89 adbd 0dc7 723e 18fe d93d 6de7 243f
000001b0: 30b0 3abe d899 6fbe 6d1a 7e3c 4e40 8d3d
000001c0: 6558 0f3b a183 a2bc 0a73 e0bd 99d4 7f3c
000001d0: 1149 6b3d 0e61 2e3e e3e6 4f3d c586 54bc
000001e0: 6db3 3abd b90c f53c 8e3a d83c 55fa 953c
000001f0: 96e7 3fbc bc92 9b3d 98a4 8d3e 095f d33b
00000200: c512 28be db93 343d 7194 c0be c473 5cbc
00000210: 396f cabc f52e 6d3c 86b6 1ebc 4c47 bbbe
00000220: e7f7 26bc 08a2 71bc 5dd4 d93c b6a7 0f3d
00000230: 3874 543d d0c4 0dbc f522 763d e607 dbbd
00000240: 969a 45bc 0242 1fbd 59f3 edbd d80f 54be
00000250: 3597 7e3b 3923 b0bd 741a 033e 2395 4a39
00000260: 777e 57bc 691b eebd f553 d43c a1ad 23bd
00000270: dbfb ddbd f6bb d93c 96f1 d2bd 9ccc 11ba
00000280: f4c6 0b3e ef1d 043d 0c83 e2bd bd1b 0cbd
00000290: 74fc 05be 59d3 16bd 5cb3 f5bc d506 e4bc
000002a0: 0ccf 5ebb d27f f4bc 43b6 ae3d a934 2fbc
000002b0: 4b7b c73c 6492 9bbd e40a 2ebd dea1 153c
000002c0: f252 013d 4ee2 72bc cef8 2ebd cb8e 18bd
000002d0: 9bba af3d 2f51 e83d 1080 f33c 26fe 9ebb
000002e0: 0eb0 11be c31b 01bc b508 6ebe df9a 8e3b
000002f0: bcd2 0d3d 13ae 5ebb f039 48bc 1984 1a3e
00000300: d5a8 1a39 03ef 303d 0f54 84bc 41b5 50be
00000310: e12a f0bc 35ad 643d 9445 163e 69cd 543e
00000320: e8a7 ed3b cc70 f53d 2e5e bd3e 597a 853e
00000330: 1d05 923c 4977 08be f941 363c 02c7 5fbb
00000340: 40bf 8ebd 5b7f d4bd 5cbc 8c38 3ddb 9b3e
00000350: d2d0 60be 25f1 e2bd 4af6 25bd c1f9 803d
00000360: 9b58 b2bd af9f 913d ab1f b6bd 6743 2f3c
00000370: a7df 8c3d 99a3 34bb d9ee a03c be28 bf3e
00000380: 8564 03bd 0a74 0b3e c062 c5be c527 05bd
00000390: 3ee3 d03d 5860 99be 0cf6 5c3e f8c7 adbb
000003a0: 9288 55bd 3a0f 413e 6069 f53d 554e 2a3e
000003b0: 4efe 893d 7c14 243d 9bea d23c 1531 2a3d
000003c0: 4b03 cfbd 553d ffbd 98aa bfbd 7a1b 713d
000003d0: 66a0 313e 6db5 0dbc 6232 413c 0c4a 8e3e
000003e0: 05bf 703d aeda b0be 08c0 903d aaaa d7bd
000003f0: 404a b03d 517d acbd 990d 68bd c48c 423e

shrink.bias f4 [12]
0.21206406 0.05533278 -0.16339692 -0.32756868 0.18175302 -0.028338829 0.20677865 -0.062751986
-0.114083454 0.05073409 -0.21836433 0.03697665
00000000: 5227 593e a0a4 623d 8651 27be 15b7 a7be
00000010: 771d 3a3e d526 e8bc c8bd 533e 1d84 80bd
00000020: 96a4 e9bd 8dce 4f3d e69a 5fbe d474 173d

activation_2.weight f4 [12]
0.18920532 0.07419366 0.9912737 0.9753588 0.49920934 0.61200523 0.34248585 0.07563648
0.97474 0.09779965 0.98904806 0.037671134
00000000: 0abf 413e d8f2 973d 1dc4 7d3f 1db1 793f
00000010: 5e98 ff3e 60ac 1c3f 4e5a af3e 4ce7 9a3d
00000020: 9088 793f 2f4b c83d 4132 7d3f 0c4d 1a3d

map_1.weight f4 [12, 12, 3, 3]
-0.081719525 0.2603022 -0.02358313 -0.017422237 -0.13178298 -0.039514694 0.06508921 0.046785314
-0.051890083 -0.040845986 0.041739244 0.011539414 0.031037025 0.05840654 -0.09603381 0.03904997
0.015536102 0.08441902 -0.0068756985 -0.0886021 0.08931103 -0.080459274 0.42894632 -0.051885784
-0.101006866 0.0795816 -0.024370892 -0.04313176 -0.10431303 -0.05204206 -0.013901268 0.53815377
0.08118476 -0.1269592 0.009889571 -0.12038871 0.057731517 0.03142293 -0.04115464 0.0931969
-0.03577555 -0.08596783 -0.016699895 -0.029423837 0.046653334 -0.038071323 0.19403684 -0.07354919
-0.017407585 -0.092830054 0.18464617 -0.036830924 -0.019831793 -0.036242325 -0.20815857 0.34416753
0.015525512 0.2775317 0.2468812 0.13358407 -0.028711569 0.0451921 0.24300691 0.04233112
-0.1705077 -0.015807759 0.09661577 -0.045599133 0.18252005 0.06574765 0.16296361 -0.10252921
0.0490469 -0.1086674 -0.009801188 -0.061485853 0.22529665 0.027543603 0.033770796 -0.07282383
0.03252091 -0.16680908 -0.12074346 -0.0906296 0.056641366 0.11470401 0.1465488 -0.027942738
0.006123605 -0.015098307 0.033393748 0.019154252 0.0028873966 0.009254369 0.035197318 0.14354357
0.059441894 -0.14945714 0.051758606 0.06412215 0.11397222 0.0010472632 -0.03843706 0.06904671
-0.1260067 0.05816387 0.14194952 0.06450811 -0.5285101 -0.35096654 0.42460367 -0.15967146
0.14825706 -0.11930178 -0.076318264 0.022685925 -0.008172002 0.1257872 -0.13316469 0.036118615
0.11124154 0.16489668 -0.06786846 0.037250105 0.1459929 -0.021670831 -0.0058345706 0.0050804005
0.07060488 -0.08917534 0.12078373 -0.06733089 0.050682187 0.009070277 0.0694212 -0.15536469
0.034477036 -0.029991927 0.010110507 -0.22450335 0.20080563 -0.044234104 0.018600406 -0.22426316
0.038891114 -0.061145354 -0.054872382 0.26302972 0.015543959 0.10935722 0.095202364 -0.08503189
0.020936955 -0.23305209 -0.043387946 -0.010091949 -0.2629252 -0.09324786 -0.17499045 -0.04604283
0.07459204 0.100349694 -0.021217383 -0.54297054 0.1519798 -0.020201748 0.7706054 -0.24030246
-0.04032305 -0.06696289 0.022100404 0.07517311 0.2323204 0.08120666 0.11791404 0.04945293
-0.08178704 0.12832074 0.16297325 0.014347921 0.1405347 -0.04537461 0.07382151 0.15352634
0.012341071 0.05370541 -0.16960092 0.019527331 0.027513577 0.3332095 0.03981352 -0.008081397
0.14758883 0.2676177 0.10754023 -0.15778849 0.2444946 -0.02835122 0.04879604 0.026847616
-0.0048903488 0.018510649 0.11801253 0.0039571747 0.020972162 0.08105584 0.041978493 0.17436746
0.44343603 0.31182823 0.8519829 -0.18937372 -0.38184345 0.1393787 0.3176019 -0.19558947
-0.15281653 0.2119124 -0.043770503 -0.046908792 0.20274217 -0.046064798 -0.06735246 0.29401344
-0.068577535 -0.11588368 -0.086017005 0.25944838 0.011897122 0.19843724 0.14287983 -0.06683204
-0.20154035 -0.10439244 -0.04985224 0.14315434 -0.1436498 -0.15895838 0.2167969 0.047524657
0.03779852 0.040025614 -0.14939229 -0.09792948 -0.0023809185 0.033859096 -0.079300664 0.23838688
0.00526064 0.009985537 -0.06663859 -0.14964063 -0.031519216 -0.032297395 -0.034905378 -0.084257245
00000000: 915c a7bd 5446 853e 6931 c1bc 14b9 8ebc
00000010: 1ef2 06be 29da 21bd 7e4d 853d f5a1 3f3d
00000020: b28a 54bd 1f4e 27bd c5f6 2a3d cf0f 3d3c
00000030: 5c41 fe3c b23b 6f3d 60ad c4bd ddf2 1f3d
00000040: 228b 7e3c e1e3 ac3d 8a4d e1bb 0575 b5bd
00000050: b4e8 b63d d5c7 a4bd da9e db3e 3086 54bd
00000060: b0dc cebd aefb a23d 77a5 c7bc eeaa 30bd
00000070: 12a2 d5bd 0e2a 55bd 25c2 63bc 72c4 093f
00000080: 3244 a63d 9801 02be de07 223c 5b8e f6bd
00000090: e277 6c3d 55b5 003d c591 28bd 04de be3d
000000a0: 6289 12bd e70f b0bd 38ce 88bc 420a f1bc
000000b0: 9117 3f3d adf0 1bbd 98b1 463e f5a0 96bd
000000c0: 5a9a 8ebc af1d bebd e313 3d3e 06dc 16bd
000000d0: 4976 a2bc d572 14bd 8527 55be ba36 b03e
000000e0: b85e 7e3c a318 8e3e 6dce 7c3e 43ca 083e
000000f0: 8634 ebbc 5a1b 393d ced6 783e 6663 2d3d
00000100: 9299 2ebe 467f 81bc 7dde c53d 28c6 3abd
00000110: 89e6 3a3e b4a6 863d efdf 263e d6fa d1bd
00000120: 67e5 483d 048d debd 2995 20bc 97d8 7bbd
00000130: 2ab4 663e 1fa3 e13c 3f53 0a3d a924 95bd
00000140: a534 053d 00d0 2abe 5948 f7bd 039c b9bd
00000150: c700 683d f0e9 ea3d e310 163e 2be8 e4bc
00000160: 86a8 c83b e45e 77bc e2c7 083d 61e9 9c3c
00000170: 7a3a 3d3b a39f 173c 102b 103d 16fd 123e
00000180: 5879 733d 4b0b 19be d500 543d 7952 833d
00000190: 446a e93d 5244 893a 2e70 1dbd 5d68 8d3d
000001a0: e607 01be 3d3d 6e3d 375b 113e d41c 843d
000001b0: 704c 07bf e3b1 b3be a765 d93e ea80 23be
000001c0: b3d0 173e 7e54 f4bd c04c 9cbd d5d7 b93c
000001d0: dce3 05bc 5cce 003e 535c 08be 1df1 133d
000001e0: 9bd2 e33d adda 283e 9ffe 8abd 9193 183d
000001f0: 2a7f 153e 0787 b1bc ed2f bfbb 7d79 a63b
00000200: 4b99 903d 90a1 b6bd 765d f73d c7e4 89bd
00000210: 2098 4f3d 809b 143c b42c 8e3d ec17 1fbe
00000220: cb37 0d3d a1b1 f5bc 8aa6 253c 35e4 65be
00000230: fe9f 4d3e d22e 35bd e15f 983c 3ea5 65be
00000240: 4a4c 1f3d 8d73 7abd ddc1 60bd d5ab 863e
00000250: 17ac 7e3c aef6 df3d 75f9 c23d 3325 aebd
00000260: fa83 ab3c 35a5 6ebe 8fb7 31bd b458 25bc
00000270: 229e 86be bcf8 bebd b230 33be 6897 3cbd
00000280: b6c3 983d 2484 cd3d 14d0 adbc 1e00 0bbf
00000290: 98a0 1b3e 237e a5bc 6546 453f d911 76be
000002a0: c829 25bd d723 89bd e80b b53c 5cf4 993d
000002b0: 66e5 6d3e ad4f a63d eb7c f13d 288f 4a3d
000002c0: f77f a7bd 8366 033e 76e2 263e 8b13 6b3c
000002d0: 54e8 0f3e bada 39bd bb2f 973d 0236 1d3e
000002e0: 3432 4a3c 34fa 5b3d ddab 2dbe c8f7 9f3c
000002f0: 2764 e13c 709a aa3e 8013 233d d667 04bc
00000300: 8721 173e 3005 893e 0d3e dc3d 4e93 21be
00000310: cb5c 7a3e d140 e8bc 5bde 473d 88ef db3c
00000320: 383f a0bb a5a3 973c 8eb0 f13d 30ab 813b
00000330: d0cd ab3c 9b00 a63d a4f1 2b3d 628d 323e
00000340: 0c0a e33e f3a7 9f3e 8d1b 5a3f 2feb 41be
00000350: fc80 c3be 4ab9 0e3e b79c a23e 9b48 48be
00000360: f07b 1cbe 90ff 583e b348 33bd 6f23 40bd
00000370: a59b 4f3e 71ae 3cbd 16f0 89bd ee88 963e
00000380: 6172 8cbd 6c54 edbd af29 b0bd 6bd6 843e
00000390: 25ec 423c 2233 4b3e 174f 123e 3ddf 88bd
000003a0: 9860 4ebe b4cb d5bd dd31 4cbd 0d97 123e
000003b0: ef18 13be fcc5 22be 0200 5e3e 37a9 423d
000003c0: 9fd2 1a3d e6f1 233d 4bfa 18be 408f c8bd
000003d0: 2f09 1cbb d6af 0a3d 6368 a2bd b11b 743e
000003e0: 7261 ac3b 619a 233c d079 88bd 653b 19be
000003f0: 4b1a 01bd 464a 04bd f1f8 0ebd 108f acbd

map_1.bias f4 [12]
0.2005836 0.026747216 0.020567657 -0.0061529567 0.03535771 0.0011819323 -0.014085699 0.010846482
-0.0374977 -0.14381656 -0.07850409 -0.14631967
00000000: ca65 4d3e fa1c db3c 817d a83c be9e c9bb
00000010: 3fd3 103d 11eb 9a3a b4c7 66bc 71b5 313c
00000020: 3097 19bd a644 13be c1c6 a0bd d3d4 15be

map_2.weight f4 [12, 12, 3, 3]
0.012956585 0.06869836 -0.03633521 0.06270984 -0.010984612 0.039788026 -0.08656019 0.037623532
-0.032200757 -0.050711088 0.017851256 -0.12335871 0.1098383 0.07342088 0.035593346 0.06655984
-0.34097382 0.19397892 0.08061923 -0.1719614 -0.2155695 -0.21626763 0.08272026 -0.0061489297
0.018606028 0.016507477 0.038915478 0.27325648 0.06381634 -0.113558814 -0.02489293 -0.105040506
0.3069203 0.08526961 0.13675077 -0.12045333 -0.15771544 0.05200977 0.16192284 0.10246022
0.25725356 -0.028975056 0.20436852 -0.066698104 -0.15365286 0.17215481 -0.1134706 0.1320036
-0.16333573 0.026024407 -0.11506436 0.22278336 -0.014396151 -0.09433523 -0.018060515 0.17276357
0.122631826 0.14705442 -0.26963252 -0.07196615 -0.14247566 0.13609724 0.09784133 0.10904814
0.17950912 -0.031790994 -0.062196575 0.1733533 -0.2916229 -0.03604062 -0.20809042 -0.015233774
-0.09532092 -0.050631974 -0.0035821775 0.025675619 -0.004894754 -0.16400403 -0.07408549 0.29841596
-0.03205441 -0.08280901 -0.03293991 -0.17372425 0.2650635 -0.06593755 -0.022991383 -0.030866057
0.13339409 -0.037902553 0.141036 -0.052340765 -0.12256062 -0.11231189 0.1994202 -0.0688845
-0.023139676 -0.10707007 0.14892147 -0.106964275 0.01560379 0.04659728 -0.08246644 -0.12192101
0.14208515 -0.049316958 0.08847162 -0.0196105 -0.015592453 0.22606857 -0.065060094 -0.0016381658
0.5235014 -0.015310701 0.00012920359 -0.047816597 -0.024804968 -0.019808464 0.15128615 -0.011808364
-0.052711554 0.05643774 -0.036629952 0.0074680904 -0.06270234 -0.017561637 -0.021267202 0.041607372
-0.09141672 -0.21597116 0.4018022 0.034451466 0.008405798 -0.14801534 -0.055127632 -0.0090976935
0.0526365 0.009540096 0.16757372 -0.2635169 0.016170712 0.040263824 0.029706333 0.027287748
-0.05387534 -0.010236959 -0.0350329 -0.038730245 0.19905078 -0.120358646 -0.061172687 0.06890996
0.04852797 -0.032577246 0.049673583 -0.009794194 0.05299058 -0.050414342 -0.019062903 -0.020099686
0.09556756 -0.04084798 0.050688554 -0.025107106 0.07838333 -0.038473208 -0.10377419 -0.007742511
-0.018183405 0.010254725 0.036089245 -0.0017957907 0.011483276 -0.021096095 -0.08384054 0.13024001
-0.04525223 0.042205773 -0.037586704 -0.017292317 0.0022267892 -0.07447683 0.043727078 -0.089576796
0.10592867 -0.053296853 -0.018964741 -0.035041686 0.067488015 0.06162183 -0.08892382 0.099386804
0.1403688 -0.30844137 -0.093244754 0.04785439 -0.024999084 0.074923605 -0.055523876 -0.069193654
-0.0050510927 0.010710201 -0.40237498 0.019947225 0.0006869862 0.031365916 0.015742691 -0.029062597
0.17403719 -0.15073645 -0.046717912 0.3662313 0.02379458 -0.025230167 -0.033685166 0.0006467101
-0.086388126 -0.06227042 0.17061941 0.24109533 0.10017646 -0.119526975 -0.20393798 -0.10882204
0.14673592 0.1146248 -0.12071516 0.25323224 -0.0046614925 -0.09051666 -0.14356095 0.036871403
-0.007933313 -0.32140008 0.28202718 0.13119522 0.01185128 -0.020711323 0.13909608 0.12301571
-0.124667324 -0.09084652 -0.08708132 -0.21648556 0.07197566 0.22061604 -0.27085048 -0.27823368
0.29863337 0.26807144 -0.06040214 0.15974618 0.33009046 -0.18177287 0.034231745 -0.02493853
00000000: db47 543c bab1 8c3d 3bd4 14bd 046e 803d
00000010: cdf8 33bc c5f8 223d 7846 b1bd 221b 1a3d
00000020: f1e4 03bd 6eb6 4fbd cc3c 923c 7ea3 fcbd
00000030: e7f2 e03d b05d 963d 54ca 113d 8750 883d
00000040: 1f94 aebe 69a2 463e b21b a53d a616 30be
00000050: 40be 5cbe 4375 5dbe 3d69 a93d f67c c9bb
00000060: ab6b 983c b03a 873c d665 1f3d 46e8 8b3e
00000070: 24b2 823d 8691 e8bd 42ec cbbc 7a1f d7bd
00000080: a824 9d3e d5a1 ae3d 6508 0c3e 3cb0 f6bd
00000090: 2880 21be 3208 553d 1acf 253e aad6 d13d
000000a0: bdb6 833e 195d edbc fb45 513e 0499 88bd
000000b0: 2d57 1dbe 5a49 303e 4663 e8bd f42b 073e
000000c0: 7b41 27be 2331 d53c dda6 ebbd 5221 643e
000000d0: d5dd 6bbc d432 c1bd a5f3 93bc efe8 303e
000000e0: 6526 fb3d 6f95 163e 460d 8abe fd62 93bd
000000f0: 24e5 11be 135d 0b3e 0961 c83d a254 df3d
00000100: 3dd1 373e 4637 02bd d6c1 7ebd 8783 313e
00000110: 994f 95be 549f 13bd a815 55be 1497 79bc
00000120: 9d37 c3bd 7963 4fbd f7c2 6abb ad55 d23c
00000130: 2c64 a0bb acf0 27be 22ba 97bd fac9 983e
00000140: 7c4b 03bd c597 a9bd 00ec 06bd c5e4 31be
00000150: 67b6 873e 440a 87bd 6d58 bcbc d0da fcbc
00000160: 7698 083e b53f 1bbd be6b 103e 4563 56bd
00000170: 1001 fbbd c703 e6bd cf34 4c3e 5113 8dbd
00000180: 6b8f bdbc 8e47 dbbd df7e 183e 1610 dbbd
00000190: 0aa7 7f3c cadc 3e3d 2ae4 a8bd b9b1 f9bd
000001a0: c57e 113e 9400 4abd 9c30 b53d 33a6 a0bc
000001b0: 7d77 7fbc 857e 673e 3a3e 85bd b9b7 d6ba
000001c0: 3004 063f bcd9 7abc d37a 0739 56db 43bd
000001d0: ca33 cbbc 5c45 a2bc c2ea 1a3e de77 41bc
000001e0: 12e8 57bd 422b 673d 4a09 16bd e2b6 f43b
000001f0: 166a 80bd 6cdd 8fbc 8e38 aebc 7e6c 2a3d
00000200: b038 bbbd 8b27 5dbe 05b9 cd3e fb1c 0d3d
00000210: 79b8 093c 5591 17be 83cd 61bd 7e0e 15bc
00000220: 5f99 573d 104e 1c3c 7298 2b3e b0eb 86be
00000230: 7178 843c aeeb 243d b25a f33c 8e8a df3c
00000240: 63ac 5cbd ebb8 27bc a87e 0fbd 9ba3 1ebd
00000250: f8d3 4b3e 987e f6bd 3690 7abd aa20 8d3d
00000260: 44c5 463d b86f 05bd 8776 4b3d d477 20bc
00000270: a70c 593d 457f 4ebd ce29 9cbc 19a8 a4bc
00000280: edb8 c33d 3650 27bd cd9e 4f3d 6bad cdbc
00000290: 7087 a03d 1596 1dbd 9087 d4bd e4b4 fdbb
000002a0: 5df5 94bc 6f03 283c 51d2 133d bd60 ebba
000002b0: 5a24 3c3c b8d1 acbc 97b4 abbd a35d 053e
000002c0: 675a 39bd f6df 2c3d 84f4 19bd 9ea8 8dbc
000002d0: 53ef 113b 4f87 98bd 2a1b 333d 0a74 b7bd
000002e0: 21f1 d83d cd4d 5abd f25b 9bbc df87 0fbd
000002f0: 2837 8a3d 2c67 7c3d b11d b6bd 4f8b cb3d
00000300: d7bc 0f3e 07ec 9dbe 1bf7 bebd f702 443d
00000310: e1ca ccbc 8c71 993d 016d 63bd 67b5 8dbd
00000320: a383 a5bb d779 2f3c 1804 cebe 5d68 a33c
00000330: dd16 343a 8c79 003d d1f6 803c af14 eebc
00000340: ce36 323e a85a 1abe 485b 3fbd ab82 bb3e
00000350: daec c23c 7faf cebc 75f9 09bd fb87 293a
00000360: 42ec b0bd 450f 7fbd dbb6 2e3e b2e1 763e
00000370: 5129 cd3d 8fca f4bd 1ed5 50be 17de debd
00000380: f141 163e 68c0 ea3d 8339 f7bd a8a7 813e
00000390: 6fbf 98bb cc60 b9bd a401 13be 7806 173d
000003a0: bafa 01bc 8d8e a4be de65 903e 0a58 063e
000003b0: df2b 423c cbaa a9bc 346f 0e3e a9ef fb3d
000003c0: 9551 ffbd be0d babd b157 b2bd 64ae 5dbe
000003d0: fa67 933d 2ce9 613e eaac 8abe a574 8ebe
000003e0: 79e6 983e a940 893e 3c68 77bd 8194 233e
000003f0: 9e01 a93e ab22 3abe 9636 0c3d e34b ccbc

map_2.bias f4 [12]
0.0023199813 0.04523337 -0.0010814748 -0.006210947 -0.050597638 -0.0025766084 0.0032780846 0.01191458
-0.0015893943 -0.0011625489 0.0052617956 0.0036177814
00000000: d40a 183b a046 393d 46c0 8dba 3385 cbbb
00000010: 783f 4fbd 51dc 28bb 22d5 563b 5f35 433c
00000020: 3953 d0ba ab60 98ba 246b ac3b 4d18 6d3b

map_3.weight f4 [12, 12, 3, 3]
0.21667498 -0.25261018 -0.058847856 -0.2377546 -0.01853902 0.052091967 -0.2210048 0.0952712
-0.028949514 -0.119867854 0.32822084 -0.011248098 -0.054984994 -0.33712575 -0.11585133 0.07211375
-0.018931216 0.046046577 -0.17652543 0.14835523 -0.038907878 0.17273551 -0.026335176 -0.05158055
-0.032063983 -0.070277184 -0.044398375 -0.09301278 0.060465354 0.019237135 0.2069047 -0.23757584
-0.24520974 -0.12038397 0.12054958 -0.0013543316 0.1623328 0.2920079 -0.05285987 0.23653238
-0.0081994645 0.097102344 -0.114365764 -0.07139498 -0.07567284 -0.045404997 -0.040876392 0.018529939
-0.034747876 -0.06977726 0.1301734 -0.08042299 0.20938271 -0.10191597 -0.21017037 0.20684916
0.018059276 0.24959822 -0.6627689 0.0057956665 -0.11677119 0.014743389 0.055304892 0.02307097
-0.074004285 -0.06668397 0.048176657 0.054764148 0.0062013236 0.018766357 0.023377817 0.05815126
0.1979146 -0.20627767 0.0024606113 -0.14073208 0.11860179 0.18704623 0.06402891 0.08654765
-0.004622981 -0.1444123 -0.24404685 0.16013499 -0.037429087 -0.029739186 0.020364642 -0.023766436
-0.26505613 0.016950345 -0.014069008 0.11704973 -0.017709037 -0.028500037 -0.22415777 0.23171681
-0.20219222 0.06700748 -0.035998538 -0.043009315 -0.076018624 -0.0073185964 -0.22322014 -0.5298381
-0.1608824 0.030726146 -0.13563915 -0.017816212 -0.18667872 0.09040467 0.008022447 -0.121478714
0.2475239 -0.19459224 -0.15743914 0.0041096974 -0.18842506 -0.062723204 -0.054867305 -0.035615932
0.21517882 0.10952439 0.25646716 0.05816081 -0.08855246 -0.07984746 0.007015784 0.27034798
-0.12887217 0.13115479 0.16978547 -0.13608323 -0.026607316 -0.12295086 0.07763114 0.35816136
-0.17311977 -0.1156844 0.10654734 0.1886417 -0.15101276 -0.212244 -0.003667917 -0.25538263
-0.10663334 0.24404699 -0.042913362 -0.31409645 0.019735856 0.04791104 -0.29228893 -0.11205475
-0.091817036 -0.009034967 -0.1153192 -0.00052624807 0.16194898 0.1095789 0.08779022 -0.23957998
-0.04936776 -0.12029834 -0.08729123 0.20182268 -0.06721454 0.11552174 0.25505015 -0.18393762
0.15170951 -0.0347624 -0.07756349 0.032724593 0.018684497 -0.19653806 0.020728046 0.193652
0.060297128 0.09365954 0.0769365 0.22529426 -0.03374888 0.22139259 -0.13902971 -0.18690535
0.18231162 -0.05027741 0.004937752 0.15445727 0.28039354 0.11119154 -0.1803796 -0.09734689
0.07444896 -0.24853311 0.12872116 -0.048087016 -0.12349459 0.08125704 0.014658629 0.2577302
0.11653613 -0.09964532 -0.13531926 0.2852088 -0.12054247 0.05526232 -0.051553503 -0.12156613
-0.017184617 0.23649973 0.16923167 -0.14624928 -0.11170105 0.005635069 -0.15005785 -0.20810345
-0.06518855 0.008988546 0.01792558 0.10710728 -0.16743909 0.025675042 0.03893617 -0.009006777
0.11998378 -0.022804024 -0.17069624 0.057615343 -0.0030848098 0.33604673 0.013165386 -0.039499614
-0.010452271 -0.08045729 0.04477353 -0.15926643 0.0121297985 -0.120858066 -0.15845114 -0.0022254258
0.00039250823 0.0222798 0.04189394 0.061123006 -0.06476319 0.057212714 -0.13791862 0.09884032
0.11070781 0.04060789 0.11172151 -0.030526891 -0.046094917 -0.2303806 0.018894084 -0.14371371
00000000: 0ce0 5d3e 1f56 81be 730a 71bd f175 73be
00000010: 25df 97bc 635e 553d 154f 62be 8c1d c33d
00000020: 8827 edbc 477d f5bd 900c a83e f149 38bc
00000030: f237 61bd bf9b acbe 7643 edbd 60b0 933d
00000040: a315 9bbc 569b 3c3d 15c3 34be 6fea 173e
00000050: de5d 1fbd 94e1 303e debc d7bc 2046 53bd
00000060: 8655 03bd 7ced 8fbd 12db 35bd 7c7d bebd
00000070: 85aa 773d 3297 9d3c d3de 533e 1547 73be
00000080: 4318 7bbe df8b f6bd b3e2 f63d d483 b1ba
00000090: 923a 263e 0f82 953e 9783 58bd 8b35 723e
000000a0: 0c57 06bc 98dd c63d 9938 eabd 8837 92bd
000000b0: 5dfa 9abd 97fa 39bd 016e 27bd 19cc 973c
000000c0: ca53 0ebd 61e7 8ebd 2d4c 053e cfb4 a4bd
000000d0: 6c68 563e 52b9 d0bd e736 57be 44d0 533e
000000e0: 0cf1 933c ad96 7f3e 39ab 29bf 93e9 bd3b
000000f0: bc25 efbd 418e 713c 6287 623d 55ff bc3c
00000100: 8f8f 97bd 9b91 88bd e354 453d 5f50 603d
00000110: 7934 cb3b e7bb 993c d682 bf3c 0430 6e3d
00000120: 20aa 4a3e 743a 53be 3542 213b 121c 10be
00000130: 7fe5 f23d 0c89 3f3e 9721 833d e53f b13d
00000140: 607c 97bb d1e0 13be 6be7 79be 6dfa 233e
00000150: 3e4f 19bd 989f f3bc c0d3 a63c d4b1 c2bc
00000160: 70b5 87be 73db 8a3c b281 66bc c5b7 ef3d
00000170: 8b12 91bc e978 e9bc 9d89 65be 2c47 6d3e
00000180: 7a0b 4fbe 383b 893d 3473 13bd 892a 30bd
00000190: a7af 9bbd d6d0 efbb d293 64be 78a3 07bf
000001a0: 5bbe 24be 66b5 fb3c fde4 0abe 4ef3 91bc
000001b0: b528 3fbe 1526 b93d 9570 033c d5c9 f8bd
000001c0: e876 7d3e 3043 47be ba37 21be a4aa 863b
000001d0: 80f2 40be 0675 80bd 8abc 60bd 03e2 11bd
000001e0: d657 5c3e 534e e03d aa4f 833e 083a 6e3d
000001f0: fe5a b5bd 1187 a3bd a9e4 e53b 0d6b 8a3e
00000200: 11f7 03be 714d 063e 3edc 2d3e 6759 0bbe
00000210: 96f7 d9bc a9cd fbbd 13fd 9e3d ed60 b73e
00000220: 4f46 31be f1eb ecbd 7e35 da3d 4a2b 413e
00000230: 17a3 1abe 7e56 59be 7061 70bb 83c1 82be
00000240: 9562 dabd 74e7 793e ecc5 2fbd 40d1 a0be
00000250: 17ad a13c 5e3e 443d e5a6 95be f67c e5bd
00000260: 920a bcbd 6607 14bc 792c ecbd e9f3 09ba
00000270: f4d5 253e e76a e03d 5ccb b33d 7454 75be
00000280: d935 4abd fa5e f6bd bfc5 b2bd 9baa 4e3e
00000290: c7a7 89bd a996 ec3d ef95 823e 255a 3cbe
000002a0: bd59 1b3e 0563 0ebd 9bd9 9ebd 390a 063d
000002b0: 3b10 993c 4641 49be ddcd a93c b64c 463e
000002c0: 1ffa 763d 93d0 bf3d e290 9d3d 8ab3 663e
000002d0: 443c 0abd bdb4 623e ce5d 0ebe 1e64 3fbe
000002e0: e6af 3a3e afef 4dbd decc a13b 0c2a 1e3e
000002f0: be8f 8f3e 64b8 e33d 6eb5 38be ce5d c7bd
00000300: b278 983d 777f 7ebe 7bcf 033e e4f6 44bd
00000310: bbea fcbd 176a a63d bf2a 703c 36f5 833e
00000320: 7faa ee3d d812 ccbd 2291 0abe e306 923e
00000330: f8de f6bd be5a 623d c429 53bd aaf7 f8bd
00000340: c1c6 8cbc fc2c 723e 114b 2d3e 5fc2 15be
00000350: 85c3 e4bd 63a6 b83b c4a8 19be 1219 55be
00000360: 9381 85bd b244 133c aad8 923c 105b db3d
00000370: 2775 2bbe 7754 d23c 897b 1f3d 2991 13bc
00000380: 0eba f53d 81cf babc ffca 2ebe 11fe 6b3d
00000390: 852a 4abb 510e ac3e a2b3 573c 59ca 21bd
000003a0: 0140 2bbc cbc6 a4bd 7364 373d bd16 23be
000003b0: 10bc 463c 6f84 f7bd 0441 22be 73d8 11bb
000003c0: 90c9 cd39 2184 b63c fb98 2b3d 1e5c 7a3d
000003d0: 90a2 84bd e157 6a3d 8a3a 0dbe cb6c ca3d
000003e0: c7ba e23d 7554 263d 3fce e43d 8813 fabc
000003f0: 06ce 3cbd e4e8 6bbe c4c7 9a3c b029 13be

map_3.bias f4 [12]
0.03554054 -0.05885115 -0.049531795 -0.015962018 -0.11160913 0.051792514 0.023281237 -0.10849337
0.114166185 -0.034813408 0.0832958 0.0917668
00000000: f592 113d e70d 71bd dae1 4abd c7c2 82bc
00000010: 5493 e4bd 6324 543d 4bb8 be3c c631 debd
00000020: f6cf e93d 8198 0ebd fd96 aa3d 3bf0 bb3d

map_4.weight f4 [12, 12, 3, 3]
0.10613148 -0.019582564 -0.011176036 -0.0043983967 -0.24433707 0.16959582 -0.10938386 0.080231845
0.27356616 -0.028613845 0.09702286 0.059460357 0.11761794 -0.42359978 0.18177132 0.206731
0.42437008 -0.07934704 -0.10614973 0.010889636 0.18371874 -0.115308665 0.013728003 0.06369172
0.15942334 0.20779437 -0.017760187 -0.056918047 0.120311886 -0.026996518 -0.11262056 -0.117249176
-0.06489056 -0.05674499 0.07829562 -0.18468887 -0.16634512 -0.15096864 -0.005159699 0.15680066
-0.30489424 0.09333491 -0.12661768 0.13439089 0.25311416 0.27267835 0.19558206 0.07492775
0.1199093 -0.40389234 -0.09027348 -0.08331542 -0.0967264 -0.0815543 0.18469833 -0.060582522
-0.08095089 -0.06964001 -0.028714849 -0.21903148 -0.007946479 -0.20260035 0.0045601223 -0.15982515
-0.073357396 0.08370194 0.16778702 0.042585216 -0.021791507 -0.19320512 0.3362319 0.104873545
0.37697563 0.1368938 -0.21268246 -0.18008383 0.3266967 -0.16320585 -0.17680053 -0.45863324
-0.36846754 -0.048297185 0.09358724 -0.12934121 -0.30578965 0.028931012 0.077893876 -0.08167454
0.26030105 0.0031363682 0.028999131 0.4022371 -0.106004916 0.1601766 -0.08959197 -0.3022611
-0.038202345 -0.27500072 -0.14938016 0.31756538 0.42010045 -0.1094698 -0.5821721 -0.04198987
0.039010104 -0.0037790718 -0.28546172 -0.16902117 -0.07701682 0.067909695 0.22178514 -0.029531531
0.12661481 0.09652415 0.044576667 -0.08566247 -0.16349508 0.07049609 -0.039122034 -0.16902646
-0.021462403 0.347104 0.3520121 -0.08587072 -0.19624597 -0.07758712 0.06899021 0.26851222
0.22187649 -0.022666082 0.3728465 0.0068904352 -0.08049151 -0.046975244 0.057658922 -0.020373473
-0.32808357 0.0085986005 0.01542293 -0.018081184 -0.001290278 0.005624614 0.03983732 -0.04447041
0.061963227 0.0012959538 0.1361359 -0.190371 -0.19675009 0.2503766 0.03841188 -0.14982785
0.09590007 0.056628373 -0.15075228 -0.3535397 0.04781324 0.18192412 0.03278104 0.07285893
0.0005945308 -0.025038714 -0.08605507 -0.08852222 -0.05245293 0.09564547 -0.094483644 0.032608144
-0.0806821 0.025003785 0.23216411 0.16073222 0.12740338 0.30510113 -0.16505912 -0.13245507
0.40401754 0.08514065 -0.19025657 0.032782435 -0.06196468 -0.39267567 -0.2891773 0.030825928
-0.20496203 -0.6071634 0.14910294 0.24298768 -0.0071624406 0.022415305 -0.12486981 0.23551467
0.0008747137 0.059686624 -0.011889068 0.06377014 -0.12031603 0.003836711 -0.09872613 -0.015268048
-0.27836803 0.10118716 -0.16264334 -0.34237468 -0.016573241 0.21261561 -0.074798286 -0.08876148
0.0134178465 -0.3460531 0.116682105 -0.32034275 -0.20874207 -0.061993867 0.17782627 -0.07588007
0.007129359 -0.019810315 0.09989826 -0.04982388 -0.07344154 -0.043780528 -0.032942582 0.20176618
-0.20763177 -0.03862228 -0.040773578 -0.05377399 -0.19630958 0.09014024 -0.23549324 0.18989415
0.38380748 -0.0067282603 -0.044374228 0.0010259156 0.043198112 -0.1430177 0.2971747 0.017685302
0.18000682 0.19572873 0.10848213 0.050219297 -0.2872139 0.12077631 0.11505616 0.09903819
-0.2684618 -0.001988767 -0.343086 -0.06808326 0.0097541725 -0.09805805 -0.116045475 -0.18923296
00000000: 765b d93d 9d6b a0bc b11b 37bc 6d20 90bb
00000010: 7f33 7abe 87aa 2d3e a504 e0bd 9850 a43d
00000020: dd10 8c3e 9567 eabc ecb3 c63d b48c 733d
00000030: ade1 f03d 12e2 d8be 4322 3a3e 4bb1 533e
00000040: 0947 d93e b380 a2bd 0865 d9bd 726a 323c
00000050: c420 3c3e f326 ecbd 6beb 603c ce70 823d
00000060: df3f 233e 0cc8 543e d07d 91bc e622 69bd
00000070: 1466 f63d cd27 ddbc 9ca5 e6bd 5620 f0bd
00000080: 58e5 84bd 6f6d 68bd 7459 a03d 141f 3dbe
00000090: 6056 2abe 8697 1abe b112 a9bb 5a90 203e
000000a0: 191b 9cbe 6026 bf3d 11a8 01be c49d 093e
000000b0: 2e98 813e 7f9c 8b3e aa46 483e b873 993d
000000c0: 0293 f53d faca cebe 4de1 b8bd 46a1 aabd
000000d0: 7e18 c6bd f105 a7bd 8f21 3d3e 6125 78bd
000000e0: 95c9 a5bd 6c9f 8ebd 673b ebbc ca49 60be
000000f0: f331 02bc 7776 4fbe 146d 953b 34a9 23be
00000100: 673c 96bd ec6b ab3d 5cd0 2b3e d66d 2e3d
00000110: 1a84 b2bc 90d7 45be 9626 ac3e f1c7 d63d
00000120: f302 c13e e32d 0c3e 6ec9 59be e567 38be
00000130: ca44 a73e 6f1f 27be 330b 35be fad1 eabe
00000140: c7a7 bcbe 45d3 45bd abaa bf3d 0672 04be
00000150: 7690 9cbe bb00 ed3c d386 9f3d fb44 a7bd
00000160: 2e46 853e 878b 4d3b 968f ed3c 05f2 cd3e
00000170: 1b19 d9bd 5605 243e ff7b b7bd f8c1 9abe
00000180: 107a 1cbd e5cc 8cbe 1df7 18be ee97 a23e
00000190: 6817 d73e b431 e0bd 3b09 15bf 92fd 2bbd
000001a0: 0fc9 1f3d 4eaa 77bb 0a28 92be e313 2dbe
000001b0: ffba 9dbd 3d14 8b3d a51b 633e 1cec f1bc
000001c0: 50a7 013e 74ae c53d 0696 363d ce6f afbd
000001d0: 416b 27be 4160 903d 6d3e 20bd 4615 2dbe
000001e0: ecd1 afbc 9eb7 b13e ee3a b43e fddc afbd
000001f0: b4f4 48be ffe5 9ebd bd4a 8d3d 6f7a 893e
00000200: 9733 633e 38ae b9bc bde5 be3e 29c9 e13b
00000210: bcd8 a4bd 1d69 40bd c32b 6c3d 45e6 a6bc
00000220: 92fa a7be 25e1 0c3c 75b0 7c3c fe1e 94bc
00000230: 8c1e a9ba af4e b83b 752c 233d 9b26 36bd
00000240: 27cd 7d3d fedc a93a 3667 0b3e 9ef0 42be
00000250: db78 49be 5d31 803e c755 1d3d 796c 19be
00000260: 4267 c43d 27f3 673d ce5e 1abe 2803 b5be
00000270: d1d7 433d 514a 3a3e 6945 063d 1037 953d
00000280: 49da 1b3a fd1d cdbc a43d b0bd 234b b5bd
00000290: e2d8 56bd c6e1 c33d a480 c1bd 1e90 053d
000002a0: a83c a5bd bdd4 cc3c 6ebc 6d3e fd96 243e
000002b0: 0876 023e 3736 9c3e 4205 29be 4da2 07be
000002c0: 63db ce3e 395e ae3d 9ed2 42be e046 063d
000002d0: adce 7dbd c90c c9be 0c0f 94be a886 fc3c
000002e0: 91e1 51be 106f 1bbf 71ae 183e c3d1 783e
000002f0: e8b2 eabb 4da0 b73c bebb ffbd c22a 713e
00000300: 0b4d 653a f679 743d 5eca 42bc eb99 823d
00000310: 4068 f6bd 5471 7b3b ed30 cabd d626 7abc
00000320: 4186 8ebe 373b cf3d fa8b 26be bc4b afbe
00000330: 9bc4 87bc e8b7 593e d82f 99bd 94c8 b5bd
00000340: 87d6 5b3c df2d b1be 07f7 ee3d f703 a4be
00000350: 7bc0 55be 48ed 7dbd 1718 363e 0367 9bbd
00000360: 669d e93b 3e49 a2bc 7597 cc3d 2014 4cbd
00000370: 8568 96bd 3653 33bd cdee 06bd cb9b 4e3e
00000380: 6c9d 54be 6532 1ebd 3202 27bd 1e42 5cbd
00000390: 6105 49be 729b b83d 2425 71be 9d73 423e
000003a0: 6a82 c43e bd78 dcbb c0c1 35bd 0478 863a
000003b0: 81f0 303d 3b73 12be 4827 983e c4e0 903c
000003c0: b553 383e 1d6d 483e e12b de3d c0b2 4d3d
000003d0: b30d 93be 9259 f73d 90a2 eb3d 89d4 ca3d
000003e0: d373 89be f955 02bb f8a8 afbe 3c6f 8bbd
000003f0: f7cf 1f3c a9d2 c8bd 40a9 edbd 49c6 41be

map_4.bias f4 [12]
0.08718581 0.1986639 0.25700256 0.26867634 0.011968849 0.0074362312 0.077704094 0.06160807
0.015208392 0.1271228 0.04891869 -0.18934646
00000000: 798e b23d 8d6e 4b3e d795 833e f28f 893e
00000010: fe18 443c a1ab f33b 5323 9f3d be58 7c3d
00000020: 9f2c 793c 7b2c 023e f75e 483d 0ae4 41be

activation_3.weight f4 [12]
0.6455904 0.34375834 0.39825487 0.9815002 1.0031632 1.0015488 0.29391715 0.5011663
1.0099272 0.52071565 0.47815305 0.65682185
00000000: 6a45 253f 1801 b03e 10e8 cb3e 9943 7b3f
00000010: a767 803f c032 803f 4f7c 963e 6f4c 003f
00000020: 4b45 813f 9f4d 053f 7ad0 f43e 7a25 283f

expand.weight f4 [56, 12, 1, 1]
0.44167364 0.07763395 -0.37987682 0.096436165 -0.048453834 -0.01926624 0.005201122 -0.2638844
0.048606463 0.1554626 0.02748362 0.21708365 0.3179346 0.3384996 -0.001979581 0.12885748
-0.07632651 0.0042526303 0.5690365 0.013679496 -0.010046274 -1.2174865 0.11184555 -0.012472113
0.39897573 -0.39727712 -0.7249537 0.21206626 0.06573848 0.058685906 0.60502195 -0.0052400497
0.03334102 -0.11845765 -0.1939936 -0.14170519 0.115278706 0.48246402 0.21246006 -0.099675015
0.00481233 -0.055222478 -0.24815895 -0.058140293 0.005424447 0.097864754 0.06253008 -0.098287374
0.33653846 -0.8390227 0.38444924 -0.16942126 0.03729439 0.06428936 0.23559912 0.058740668
0.116536275 -0.031204907 -0.24137136 0.044964466 -0.141647 0.34501484 0.13515496 0.020277852
-0.083824664 0.030099984 -0.0502582 -0.013972637 -0.006072374 0.30717432 -0.099112086 -0.0467355
0.45905963 0.9369442 -0.09748814 0.44536152 -0.5666238 -0.062340003 0.49051666 0.12446311
-0.28455195 -0.6876074 -0.33725744 -0.0038594378 -0.16612108 0.5353137 0.25701985 -0.2294894
-0.0018023516 -0.04381031 0.14998783 -0.05655055 0.034464028 0.14502412 0.102240376 0.06603413
-0.3567505 0.18165381 0.11873423 -0.0278154 -0.045333266 -0.008339525 0.12807712 0.19573914
-0.037074298 0.02939598 0.25727332 0.28542534 -0.40380052 0.1928089 -0.12363491 0.44550657
-0.0055627683 0.033955254 0.19116572 0.14853643 -0.17513192 0.44340947 -0.16222304 -0.43560845
-0.081122324 0.18356018 0.09011241 0.19017445 -0.013131818 0.02117099 0.2963536 0.16957253
-0.07315237 0.5753083 0.08125605 -0.050372895 0.5655 -0.12616865 0.31504497 -0.086530656
-0.0069874935 -0.048631363 -0.4770938 0.110415466 0.033181947 0.19827878 -0.20171049 -0.06802383
0.1531014 0.022564583 -0.0728668 0.1301683 0.5318812 0.1853193 0.28761885 0.23877446
0.8778652 0.22553718 -0.10134625 0.18893312 0.19065666 0.023295134 0.22773978 0.181431
-0.09211457 -0.0020844901 0.06852198 0.058114976 -0.021676917 -0.0045674853 0.024095124 -0.10572574
0.041202478 -0.0652046 -0.10655815 0.11745499 0.13927816 0.51694953 -0.34401336 -0.12094545
-0.25483662 -0.033298995 -0.014049096 -0.07315555 -0.28443584 0.7943818 -0.64293295 0.23926139
-0.053289615 -0.10542457 -0.21572287 -0.108158104 -0.17476933 -0.05177607 0.17397352 -0.07363576
-0.16608776 -0.85591185 -0.65719926 0.029762493 -0.05319821 0.020382216 0.08673135 -0.0085466355
-0.10072445 0.28896523 0.26269782 0.035704248 0.35602325 0.6711057 -0.04155085 0.4094281
-0.23987094 -0.18076842 0.47131753 0.03561638 -0.14283906 -0.5582374 -0.3668934 0.058298595
-0.043645952 -0.033406004 0.47513604 -0.39067245 -0.2845381 -0.14059915 -0.5626894 -0.1549599
-0.046289735 0.18819033 -0.09424055 0.036824647 0.17474274 0.18271394 0.26601624 0.2319109
-0.06791861 0.0938093 0.1394309 0.02818497 0.008449362 0.026778223 -0.007436539 -0.005622244
0.14341749 -0.05841634 0.099987365 0.0985821 0.08310664 0.052458696 0.335129 0.014165591
0.09096213 -0.11665237 -0.12078922 -0.35999256 0.1758258 -0.25225952 0.0031172878 -0.11004936
00000000: 0c23 e23e 8cfe 9e3d 377f c2be 5380 c53d
00000010: 8777 46bd 3cd4 9dbc 2c6e aa3b db1b 87be
00000020: 9217 473d 9631 1f3e 5425 e13c 2d4b 5e3e
00000030: 53c8 a23e d24f ad3e dcbb 01bb 37f3 033e
00000040: 1351 9cbd a659 8b3b 60ac 113f f71f 603c
00000050: 2199 24bc 99d6 9bbf 480f e53d d557 4cbc
00000060: 8c46 cc3e e867 cbbe 9196 39bf e627 593e
00000070: e5a1 863d a260 703d b8e2 1a3f b9b4 abbb
00000080: 9890 083d ed99 f2bd 42a6 46be 2a1b 11be
00000090: 3e17 ec3d 8605 f73e 218f 593e 6a22 ccbd
000000a0: c0b0 9d3b f730 62bd 611d 7ebe 8424 6ebd
000000b0: 8fbf b13b 516d c83d c50f 803d e44a c9bd
000000c0: c54e ac3e 31ca 56bf 88d6 c43e c47c 2dbe
000000d0: 01c2 183d 24aa 833d e540 713e 0e9a 703d
000000e0: 92aa ee3d 6fa1 ffbc 0e2a 77be a92c 383d
000000f0: e90b 11be c9a5 b03e 1066 0a3e bd1d a63c
00000100: 44ac abbd 3e94 f63c 8bdb 4dbd 7ded 64bc
00000110: c4fa c6bb f445 9d3e 47fb cabd b96d 3fbd
00000120: dd09 eb3e 93db 6f3f dda7 c7bd 6d06 e43e
00000130: 420e 11bf 3b58 7fbd 0025 fb3e 84e6 fe3d
00000140: cbb0 91be 0a07 30bf 02ad acbe 9fee 7cbb
00000150: a51b 2abe 520a 093f 1b98 833e 45ff 6abe
00000160: e23c ecba 7172 33bd 6996 193e 8da1 67bd
00000170: 272a 0d3d 3481 143e 6763 d13d e73c 873d
00000180: 00a8 b6be 7503 3a3e ef2a f33d 1fdd e3bc
00000190: 60af 39bd 81a2 08bc a626 033e d76f 483e
000001a0: 38db 17bd d7cf f03c 54b9 833e 4523 923e
000001b0: f1be cebe b26f 453e 4d34 fdbd 7019 e43e
000001c0: e247 b6bb aa14 0b3d f2c0 433e ef19 183e
000001d0: c855 33be 9106 e33e cc1d 26be 1208 dfbe
000001e0: 7623 a6bd 33f7 3b3e db8c b83d 17bd 423e
000001f0: d626 57bc c96e ad3c a9bb 973e 6ca4 2d3e
00000200: e9d0 95bd 6847 133f 9269 a63d cf53 4ebd
00000210: 9cc4 103f 5b32 01be 934d a13e fc36 b1bd
00000220: 58f7 e4bb ae31 47bd a345 f4be 8121 e23d
00000230: cbe9 073d 9809 4b3e 328d 4ebe 1450 8bbd
00000240: 9dc6 1c3e 5cd9 b83c 303b 95bd d74a 053e
00000250: 5e29 083f 58c4 3d3e c742 933e 4b81 743e
00000260: c6bb 603f 38f3 663e 9f8e cfbd af77 413e
00000270: 803b 433e 70d5 be3c 9e34 693e 0cc9 393e
00000280: 90a6 bcbd f19b 08bb 4055 8c3d f809 6e3d
00000290: ca93 b1bc d8aa 95bb 2363 c53c bd86 d8bd
000002a0: eec3 283d fd89 85bd 293b dabd 3e8c f03d
000002b0: ef9e 0e3e ce56 043f 8522 b0be 40b2 f7bd
000002c0: f279 82be 8764 08bd 2e2e 66bc 94d2 95bd
000002d0: 93a1 91be 9b5c 4b3f 4197 24bf f000 753e
000002e0: 3646 5abd d6e8 d7bd 75e6 5cbe ff81 ddbd
000002f0: bbf6 32be 2513 54bd 1d26 323e 58ce 96bd
00000300: e912 2abe 0a1d 5bbf 363e 28bf 79d0 f33c
00000310: 5ee6 59bd 9bf8 a63c 35a0 b13d 3007 0cbc
00000320: 9f48 cebd 40f3 933e 5480 863e 9e3e 123d
00000330: ae48 b63e 95cd 2b3f 3931 2abd 8fa0 d13e
00000340: baa0 75be 5b1b 39be 8850 f13e 7be2 113d
00000350: 6744 12be a5e8 0ebf 74d9 bbbe 82ca 6e3d
00000360: 19c6 32bd bcd4 08bd 0845 f33e 3806 c8be
00000370: faae 91be 39f9 0fbe 6a0c 10bf cfad 1ebe
00000380: 4e9a 3dbd f7b4 403e 3101 c1bd 71d5 163d
00000390: c3ef 323e 5d19 3b3e 4833 883e 0d7a 6d3e
000003a0: ea18 8bbd 171f c03d f9c6 0e3e 2be4 e63c
000003b0: 316f 0a3c 015e db3c 36ae f3bb cd3a b8bb
000003c0: 09dc 123e f945 6fbd 2dc6 cc3d 69e5 c93d
000003d0: d033 aa3d eede 563d 0796 ab3e cc16 683c
000003e0: 5a4a ba3d 70e7 eebd 5760 f7bd f250 b8be
000003f0: ae0b 343e 2928 81be 694b 4c3b 8f61 e1bd

expand.bias f4 [56]
0.09488998 -0.16077235 0.11025821 -0.030317673 -0.031709213 -0.010227953 -0.20849645 0.0027781983
0.004090367 -0.021604592 0.022552758 -0.05580024 0.080904245 -0.06258196 -0.03357965 -0.06625348
-0.02455103 -0.118181944 -0.23799272 -0.029294435 -0.022043154 -0.015690155 -0.10527603 -0.09256714
-0.06833171 -0.03700588 -0.07869091 0.122494586 -0.023022981 -0.026626574 0.11451645 0.0086043775
0.029651664 -0.07228973 -0.04513606 -0.15773447 -0.060439967 -0.14110458 -0.056001913 0.0459052
-0.07295705 -0.12977618 0.044648573 0.0040529007 -0.08772259 0.047639724 -0.018748656 -0.056281988
-0.011021841 -0.27785668 -0.22746477 -0.060146086 -0.022449566 -0.06351716 0.025695767 -0.064020865
00000000: ae55 c23d 82a1 24be 0ecf e13d c55c f8bc
00000010: 85e1 01bd 2593 27bc 1880 55be 6f12 363b
00000020: 7c08 863b 1dfc b0bc 90c0 b83c cb8e 64bd
00000030: 20b1 a53d f82a 80bd d18a 09bd e8af 87bd
00000040: 3e1f c9bc 6009 f2bd 5db4 73be e2fa efbc
00000050: d893 b4bc a488 80bc f69a d7bd d793 bdbd
00000060: 7ff1 8bbd 7a93 17bd b328 a1bd 71de fa3d
00000070: b19a bcbc f91f dabc 9a87 ea3d 60f9 0c3c
00000080: 0ce8 f23c a30c 94bd 97e0 38bd 2585 21be
00000090: e68f 77bd b87d 10be 4362 65bd 1707 3c3d
000000a0: 816a 95bd 0ce4 04be 6ce1 363d 32ce 843b
000000b0: e7a7 b3bd df21 433d c896 99bc f187 66bd
000000c0: f494 34bc 3b43 8ebe 86ec 68be be5b 76bd
000000d0: 27e8 b7bc 4915 82bd ee7f d23c 5f1d 83bd
