checkpoint/x2/ckpt.pt (torch, 312241 bytes, 60 tensors)

feature_extract.weight f4 [56, 3, 5, 5]
00000000: aa0b a73d 4994 4dbe 6384 dbbd 4b7d e5bd
00000010: 35bc db3b c58c 89bd 279e b53d 126e de3d
00000020: 2bc5 6a3d da12 cabd 7d19 8cbe 371b dcbd
00000030: 9546 fcbd 62e8 093e 0830 9bbd 6802 993d
00000040: d3f9 a73c a02c fabd 280a c6bd fd37 6b3e
00000050: 18f9 72be e3c7 2a3c db82 74be 0af6 393e
00000060: e481 f5bc 096d 113d cc40 b33d 23f3 5abe
00000070: 3332 56bd f778 ae3e 43f8 c7bd 3421 763e
00000080: a8af b0be fd7d c83d cc21 983b b9af a5bd
00000090: dcc1 6fbd f9c7 13bf 348c f8bd 0279 2bbe
000000a0: a46b b0bc dbfc 143d 30ec 46be b2c7 1ebe
000000b0: bfc6 be3d ed00 513e cd45 03be 58b6 22be
000000c0: 8a26 e63e a064 f9bc 18f3 bf3c ee7d 653e
000000d0: 007b 753e b0ef 70be caf1 383d a5a3 a1bd
000000e0: 64a4 fcbd 7344 96be 4fa7 c13e 0e23 7ebe
000000f0: 5a0a 1e3d 6621 95be c18e a4be 9008 82be
00000100: b6d1 13bd 95bc 2a3e 8529 873b e9da b43e
00000110: 91bc 123e 64f9 19bd 80c4 173d 09fe 1f3e
00000120: 4515 e3bd 6bae eebb ba82 d63b c547 10be
00000130: bd59 75bc e8c9 11be 8996 a13c 91f3 d6bc
00000140: d71d 1c3e 7685 da3d e41d ddbd 11b1 1ebe
00000150: 9499 83ba 470d 963d 46ed e6bd 84af f53e
00000160: 6570 de3d 3fe9 d03d 037d 29bc 096d 99bd
00000170: 024d 18be a763 9bbd 4d68 6bbd 11c3 913b
00000180: cbeb 03bd a408 8c3d 05e3 65bc cf53 2e3d
00000190: a7cf a5be cd92 27be fc38 653d 0c50 89bd
000001a0: ab57 d2bd 21b3 1f3e f38c a0be 3a8e e43c
000001b0: d55f 83be 2f9b bd3d 48d4 69bd 3453 953d
000001c0: be34 473e e737 a4bc 97f0 473d adc1 53bb
000001d0: 27ed 4bbd 4629 30bc 9e50 333e e25e 39bd
000001e0: d321 b2bd 304b 643d cf67 e63d f853 e0bd
000001f0: 273c 98bc 0b55 18be 4317 20bf 6949 7e3e
00000200: c028 773b aec9 1bbe 4573 d6bc 043a 243e
00000210: 94d0 273e 61be ec3d ccd9 a5bd 6d66 c4bc
00000220: a9a8 febd 9de1 0a3e 194a 733e 3338 88bd
00000230: dcf8 41bb 7d7b 05be f504 2c3e 3fe5 d7bd
00000240: f994 083d b70e a0bd 11b3 103e 8d07 7a3d
00000250: 2407 dfbd bbe7 edb7 1ce3 923d 21b9 3dbe
00000260: 515c 0c3e db02 3cbd 6841 ebbd 0b44 92bc
00000270: 7b22 c43d 5029 123e de24 95bd 1d5a 2ebd
00000280: 9b29 a13d 4e72 613e 07ed 3d3f 37b0 0dbd
00000290: a285 6dbe e852 9bbd b666 cdbb 8c61 13bd
000002a0: 91d7 10be 49ad ddbd d2f6 90bd 297d 563b
000002b0: 7942 6e3d 0a47 22bc aa0b 973d 806c edba
000002c0: a9d9 0d3d 886b fd3d 424d 5b3e 2438 d43d
000002d0: ba86 a5bd c85b 7abe c786 b2be e84f e23c
000002e0: b1da 8fbd 2b13 85bd 47f1 4bbe 752a 23be
000002f0: 6a69 74bc cca1 f6bd d2fd 0ebd 61c2 dd3d
00000300: 5135 49be 22f7 e6bc 87d0 c13d 3a8c 103e
00000310: 1307 5cbe 2bcd e5bd 115d 05bc 0d3d a0bc
00000320: 92da 17bd 5336 3bbe 35bd 89bc 6cf7 c0bd
00000330: f4db c63d 9904 f7bc 61a3 823c 58f4 5dbe
00000340: 8957 5b3d e98a f33c b4db 8ebc 1f1a 4d3e
00000350: 981e 0b3f 7215 093e 50e2 08be 8965 f63c
00000360: 9065 82bd 51c5 803e aa63 70bd 6af5 fa3c
00000370: c178 e43d fdd6 eeba b133 9fbb b068 b6bd
00000380: d2e9 0b3e ca72 bfbc 9587 27bc 010a 8c3d
00000390: 424d 923e 9cdd ca3d 8de0 75bd 2553 1d3d
000003a0: ec91 96be 54d3 efbe 0133 a2be 7b14 123d
000003b0: 0765 4c3e 1e22 bf3e f2ac 553e d0e0 d43d
000003c0: fda4 553d 9d8e 5bbe 3802 c6be 8c5b 0c3e
000003d0: 4048 80be fa35 0e3c 2cad 343e b366 953c
000003e0: 08ee 88bd b256 8f3d 6043 da3c 74d9 b43b
000003f0: bf23 dfbd ad10 99be d672 68be 2cb5 273e
0.081565216 -0.20076098 -0.1071861 -0.11205538 0.0067057856 -0.06716303 0.08868056 0.10860838
0.05731694 -0.09866877 -0.27363196 -0.10747378 -0.1231815 0.13467553 -0.075775206 0.07471162
0.020504868 -0.12215543 -0.09669906 0.22970577 -0.23727834 0.010423633 -0.23878042 0.18160263
-0.029969163 0.035504375 0.087525934 -0.21381812 -0.052293967 0.34076664 -0.09764149 0.24036103
-0.34509015 0.09789655 0.004642701 -0.08090157 -0.058534488 -0.5772701 -0.121361166 -0.1674538
-0.021535702 0.036373954 -0.19426036 -0.15505865 0.093152516 0.2041051 -0.12819596 -0.15889871
0.44951278 -0.03044349 0.023431346 0.2241132 0.23972702 -0.23528934 0.045152463 -0.07892541
-0.123360425 -0.29349098 0.3782296 -0.2481806 0.03858409 -0.29127043 -0.32140163 -0.25397158
-0.036088668 0.16673501 0.0041248226 0.35323265 0.14329745 -0.037591353 0.03705263 0.1562425
-0.11088041 -0.007283976 0.0065463455 -0.14089878 -0.014975009 -0.14237177 0.019725101 -0.026239188
0.15245758 0.10669987 -0.10796717 -0.15497233 -0.0010040277 0.07326751 -0.11275725 0.4798547
0.10861281 0.10200738 -0.0103447465 -0.074915 -0.14873126 -0.075873666 -0.057472516 0.0044483026
-0.03220729 0.068375856 -0.014031176 0.042560395 -0.3238499 -0.16364594 0.055962548 -0.06704721
-0.102706276 0.15595676 -0.31357536 0.02789985 -0.25659052 0.092581145 -0.057087213 0.0729126
0.19453713 -0.020046188 0.04881343 -0.0032311485 -0.049786713 -0.010752028 0.17511222 -0.045256503
-0.08697858 0.055735767 0.11250269 -0.10953516 -0.01858337 -0.14876191 -0.62535495 0.24832691
0.0037713498 -0.15213653 -0.026178012 0.16037756 0.1638816 0.115597494 -0.08098182 -0.023974622
-0.12434513 0.13562627 0.23758735 -0.06651344 -0.0029597795 -0.13035388 0.16798766 -0.10541772
0.033345196 -0.07815307 0.14130808 0.061042357 -0.10890034 -2.836051e-05 0.07172224 -0.18527652
0.13707091 -0.04590116 -0.114870846 -0.017854711 0.09576889 0.14273572 -0.072824225 -0.042566407
0.07869264 0.2201626 0.741898 -0.03459188 -0.23195508 -0.075841725 -0.0062683476 -0.0359817
-0.14144732 -0.10824067 -0.07078327 0.003272841 0.058168862 -0.009904632 0.073752716 -0.0018114
0.034631405 0.123740256 0.2141619 0.103622705 -0.08082338 -0.24449074 -0.34868452 0.027625993
-0.07024134 -0.064977966 -0.19916259 -0.15934165 -0.014917711 -0.12042579 -0.03491003 0.108280905
-0.19649245 -0.028194014 0.094636016 0.14115992 -0.21487074 -0.11220773 -0.008139865 -0.019560361
-0.03707368 -0.18282442 -0.016813854 -0.09422192 0.097099215 -0.03015356 0.015947046 -0.21675241
0.053550277 0.029729323 -0.017438747 0.20029496 0.5434356 0.13387087 -0.13367581 0.030077713
-0.06367028 0.2515054 -0.058688797 0.0306346 0.111558445 -0.001822203 -0.004858457 -0.08906686
0.13663414 -0.023370165 -0.010225196 0.068378456 0.28574568 0.0990555 -0.0600286 0.03840937
-0.29408205 -0.46840918 -0.31679538 0.035664063 0.19960414 0.37330717 0.20866755 0.10394442
0.0521593 -0.21441121 -0.38673568 0.13706797 -0.25055122 0.008679861 0.17644185 0.018237447
-0.06686026 0.06998958 0.026643455 0.0055190865 -0.1089549 -0.29895535 -0.22700056 0.16377705

feature_extract.bias f4 [56]
00000000: 109f b33e cdbf 6ebe cc07 5ebe b9d3 16bd
00000010: c6f6 04bd c15e a8bd 42c0 9d3d 2115 78be
00000020: 4b02 00be 0e5f f73d 02d7 d03e 012c 9abd
00000030: 1a57 5a3e 708a 95be 1cef 71be 031a 31bd
00000040: 2317 9dbe 1019 1b3e d03e a03b 3765 07bf
00000050: 8829 a5be 5db7 b1be be43 adbd d9e2 213d
00000060: 9895 96be 0e95 a7be 0467 67be 736e f33d
00000070: 9be1 4c3e 31ce 77bd e510 6e3e e9d0 08be
00000080: 45be 633e 4002 463c 6976 c3be 1388 2abd
00000090: 8acc aa3d 0b07 c1bd e5cf b03e 5409 2cbd
000000a0: d4d5 2abd 012b bcbe 5925 8a3e 82c9 913e
000000b0: f9aa 33be 493b 013f c261 5a3e 712f 7c3e
000000c0: b899 21be 7647 223e f487 df3d ffde 93be
000000d0: 23a8 bcbe 33ec b3be ce15 aebe 38fd ffbe
0.35082293 -0.23315354 -0.21682662 -0.03682301 -0.032461904 -0.08221198 0.07702686 -0.2422681
-0.12500875 0.12078677 0.40789038 -0.07527924 0.21322289 -0.29207182 -0.23626369 -0.043237697
-0.30681714 0.1514628 0.0048903003 -0.52888817 -0.32258248 -0.34710208 -0.084601864 0.03952298
-0.29411006 -0.32730907 -0.22597891 0.11886301 0.20007937 -0.060499374 0.23248632 -0.13360943
0.22240551 0.012085497 -0.38176277 -0.041633677 0.08339794 -0.094251715 0.3453361 -0.042001083
-0.04170783 -0.3675156 0.2698162 0.2847405 -0.1754569 0.50481087 0.21326354 0.24627472
-0.15781295 0.15847573 0.10914603 -0.2888107 -0.36847028 -0.35141143 -0.3400101 -0.49997878

activation_1.weight f4 [56]
00000000: 0c49 0d3e c7c3 643d 1f31 803f 682d 79ba
00000010: 7ac3 643c 9ce0 413f 99c1 12bd ba13 7d3f
00000020: 0048 803f 8cdf 773f 7085 9bbd cf47 803f
00000030: 54a7 7d3e f5eb 983d bec6 7f3f 489a 87bb
00000040: 29ed 7e3f 261e 88b9 252d 57be 27ba 8db9
00000050: 8ea7 803f cbdb fe3d e4a7 763f 0f35 7d3f
00000060: f343 803f b0fd 26bc 183c 823b c67f 313c
00000070: ea96 7f3f 31e6 cb3d 66d5 743d efb1 f63c
00000080: 2390 36ba e37c e83e d469 7d3f 10c2 803f
00000090: c922 803f b930 6139 caa7 fdbb 6971 26bf
000000a0: a916 96bc ffcc 7f3f 7c77 813e 5405 6abc
000000b0: 3cc9 7f3f 331d b1ba af49 d83d e124 3f3e
000000c0: 1838 0c3e 6c2a 823f 191c 633f 1ee1 803f
000000d0: 0252 7f3f 8c7a 803f b549 7f3f e6c8 94bd
0.13797396 0.05585077 1.001499 -0.0009505362 0.013962621 0.7573335 -0.03582916 0.98858225
1.0021973 0.9682548 -0.075938106 1.0021914 0.24770862 0.0746688 0.9991263 -0.004138265
0.9958063 -0.00025962404 -0.21013315 -0.0002703231 1.0051134 0.12444266 0.9634993 0.98909086
1.0020736 -0.01019232 0.003974449 0.010833686 0.9983965 0.09956015 0.059773825 0.030114142
-0.0006964227 0.4540778 0.98989606 1.0059223 1.0010616 0.00021475823 -0.0077409493 -0.650168
-0.018321352 0.99922174 0.25286472 -0.014283497 0.99916434 -0.001351273 0.10560929 0.18666412
0.13693273 1.0169196 0.8871475 1.00687 0.9973451 1.0037398 0.99721843 -0.07264881

shrink.weight f4 [12, 56, 1, 1]
00000000: 1d38 5d3c f70e febd 138f abbc fb2f cbbd
00000010: 43f2 1f3d 250c 963d b9e5 353e 12fe 8e3d
00000020: dd21 cc3c 4b86 803d 0129 efbd d316 cc3d
00000030: 125c 8a3e 4189 d1bd 4e46 51be fad0 0f3c
00000040: 15d6 adbc f86d be3d d705 683d af36 023d
00000050: 46d9 6dbc 08dd 2b3e 5eee 1c3e 4c1c 77bd
00000060: 1092 26bd 9601 013e 27f2 cebd ff45 17be
00000070: c560 82be 02e7 8abd 515c 3e3d 90d9 b6bd
00000080: dbec 62be 6f49 f63c 361e a53d 45a6 9b3c
00000090: 1579 a13d 1ea9 7e3d 6576 c7bd 1c31 1d3e
000000a0: ceea e7bd 0812 443e 2230 92bd b48d 42be
000000b0: 0687 0d3e 658b 06bd 2014 8abe 8be4 3f3d
000000c0: 5ef2 26be 433b c13d ace9 f53d 90b2 583e
000000d0: bcb1 86be eca5 963b 934b 4fbe 6771 133e
000000e0: 593f a4bd 180c b93c 58a8 1a3e 0347 603d
000000f0: 21a0 e6bc 440e 6a3c 294a 923c ae5a 30bd
00000100: 3fdc 13be 094d 92bd d266 a7bc 70b2 ff3c
00000110: 508d 9d3e d841 fe3b 6de3 3c3e 1401 b03b
00000120: 56ed b6bd 5370 6a3d 8f78 a13a b445 57bd
00000130: 7b93 aebe dfeb fbbc 710f e0bc 60a5 853c
00000140: c81c c03c 91d3 ef3c 3959 ad3d 8581 c43d
00000150: 2b32 7cbd 52d2 573e 5fc3 063e 22b8 6abb
00000160: 2a34 873c 22f5 c43b d340 ce3d 0024 98bc
00000170: f840 04bd 9d40 063d 1e05 1c3c 31b5 bbbb
00000180: 5be0 c1bc 1a13 bdbc ed51 6bbc 8886 0cbd
00000190: 82ec 183d 2a4e 503c 9e12 173d 47a0 1abe
000001a0: 7f20 7dbd ef3a c6bd c224 1e3c eedd 053e
000001b0: ccd9 d1bc 7924 063d 42a1 1fbd 6335 c23b
000001c0: c65c ddbc 565b 82bd ea3d 343e 9401 09bd
000001d0: 51af 40bd d863 38be 6793 66be 0d32 243e
000001e0: b681 223e cb9d 57bd 4d7c a7bc 2b89 eb3d
000001f0: e7fc 9cbe e631 593e bc8f 42be 06fd 85be
00000200: 5a97 c23d a1f3 cb3d 6b1d c3bb c9c9 e33d
00000210: 76aa 8e3e b5ba 4cbe 0024 5e3e 6239 fc3d
00000220: c8d8 ff3d adf1 8dbd 57f2 22be e1c7 e6bc
00000230: 9e17 2cbd c028 a7bd 5175 adbd 4359 09bc
00000240: 6ae5 1b3e d077 54bd 411c f1bd 4352 4b3d
00000250: 1ebb d53d 7d40 3f3e d5be 61be b420 b3bd
00000260: 7eb7 03bb 9668 99bd 07f5 7fbe 17b2 03bd
00000270: aec2 843d cb75 6dbc 52d6 853e bc4f 093f
00000280: 0139 ab3e d70e c5bc c18b 643d e086 0f3e
00000290: 4fb6 e5bd 042b 323d ec57 f3bd 1980 56bd
000002a0: 3831 93be 7a98 7d3a 7f5e 0d3e 1f1a 923c
000002b0: e503 b7bb f490 dc39 8b14 593b 8a63 abbd
000002c0: a942 653c 3b88 44bd 9150 d8bc 4d77 a63d
000002d0: 3f36 ab3e ae2b da3b 511b 47bd 0092 8f3b
000002e0: 51fb 133e a047 513c cd6c 5d3c 4a29 bbbd
000002f0: 9ae9 1b3e 07f1 f43c a4c5 883d 451e 39bb
00000300: 6fcb 1a3e 6c81 75ba 8907 4d3e f28f b43c
00000310: 666f 92be c727 c33d 5dc4 9e3d ac06 dbbb
00000320: 51f7 4abc b7cf a3bb 667d 273e 82c1 25bc
00000330: 4eb8 743d d577 9e3c 316b 1fbc 274a 3c3c
00000340: 5237 c8bc 0136 e33d 22cf 183c 36df 43bc
00000350: f5a3 243e 0da7 1cbd bfb5 55bd 78d6 b9bd
00000360: 24db be3d 4921 90bd a734 50bc 200e 773e
00000370: 0c5b 5d3e 4b69 383e ca37 ebbd 5e3f 213c
00000380: 8a47 653e 0e56 543c ce67 5c3d ee3d b7be
00000390: c0ee 37bd 0cf7 e3bc 8802 77bd d8b7 20bd
000003a0: 8a13 a0bd 01ff 31bd 52d0 033d ab98 e4bb
000003b0: bca5 133d 914f 3c3d dcc4 16bf d1a6 f0bc
000003c0: 95dd 49be a810 bd3b d820 73bc 887d 1abd
000003d0: 89ea 9cbd f7b3 f2bd 29cb 6fbd c2b1 923d
000003e0: 831e f93b 944f c4bc 7533 6dbd 9d43 d53d
000003f0: a6a6 593c bec5 5e3d 0273 e43d 914b 8ebb
0.013502148 -0.12405198 -0.020942247 -0.09921261 0.0390494 0.07326535 0.17763413 0.06982054
0.024918491 0.06275614 -0.11677743 0.09965291 0.2702337 -0.10231257 -0.20436975 0.008777851
-0.021220246 0.092983186 0.056646194 0.03179043 -0.014517134 0.16783535 0.15325305 -0.06032972
-0.04066664 0.12598261 -0.10104781 -0.14772795 -0.25464454 -0.067823425 0.04647476 -0.089282155
-0.22160666 0.030064313 0.08062403 0.019000182 0.07884423 0.062173 -0.09739379 0.15350765
-0.11324082 0.19147503 -0.07138087 -0.18999368 0.13821039 -0.03284778 -0.2696848 0.046848815
-0.16303393 0.094351314 0.1200746 0.21161866 -0.26307476 0.004597416 -0.20243673 0.14398728
-0.08019895 0.022588775 0.1510328 0.054755222 -0.028152527 0.014285628 0.017857628 -0.04305523
-0.14439486 -0.071435995 -0.02043477 0.031213015 0.30771875 0.007759314 0.18446131 0.0053712223
-0.08931987 0.057236027 0.0012319254 -0.05255671 -0.34096894 -0.03075212 -0.027351113 0.016314209
0.023451224 0.029275687 0.084642835 0.095950164 -0.06157128 0.21076325 0.13160466 -0.0035815318
0.016504366 0.0060106674 0.10070958 -0.018571854 -0.03228852 0.032776464 0.009522704 -0.005728387
-0.023666551 -0.023080397 -0.014362794 -0.034307986 0.037334926 0.012713948 0.03688299 -0.15100203
-0.06179857 -0.096792094 0.009652318 0.1307294 -0.025616549 0.032749627 -0.038972147 0.0059267743
-0.027021777 -0.06365077 0.17601743 -0.03344877 -0.047042195 -0.18006837 -0.22517167 0.16034718
0.15869793 -0.052640717 -0.020445013 0.11500772 -0.306617 0.21210441 -0.19000143 -0.26169604
0.09501524 0.09958578 -0.0059544346 0.11122472 0.27864426 -0.19993098 0.2169342 0.123156324
0.124925196 -0.069308616 -0.15912758 -0.028171482 -0.04201471 -0.08162069 -0.08469642 -0.008383098
0.15224233 -0.051872075 -0.11772967 0.049638998 0.104360804 0.18676944 -0.22045453 -0.08746472
-0.0020098384 -0.07490651 -0.24995814 -0.03215226 0.06482445 -0.014493416 0.26140076 0.5363729
0.33441928 -0.024054928 0.055797342 0.14016294 -0.11216413 0.043498054 -0.11882004 -0.052368257
-0.28748488 0.0009673905 0.13805579 0.017834721 -0.005585181 0.00042069668 0.0033123817 -0.08368595
0.013992944 -0.047981482 -0.026405605 0.081282236 0.33439824 0.006658039 -0.048610035 0.004381418
0.14451338 0.012773424 0.01351471 -0.09138735 0.1522583 0.029900087 0.06678322 -0.0028246802
0.15116666 -0.00093652937 0.20022406 0.022041295 -0.28600615 0.09529071 0.07752297 -0.006684145
-0.012388066 -0.004999127 0.1635643 -0.010116937 0.05974608 0.01934425 -0.009730146 0.011492289
-0.024440441 0.11094285 0.009326728 -0.011955073 0.1607817 -0.03824525 -0.05217528 -0.0907411
0.093191415 -0.07037599 -0.012707866 0.24126482 0.21616763 0.18008916 -0.1148525 0.009841768
0.22390571 0.01295997 0.053809933 -0.35789436 -0.044905424 -0.027827762 -0.06030515 -0.039237827
-0.07816227 -0.04345608 0.03218109 -0.0069762073 0.03604673 0.045974318 -0.58894134 -0.02937642
-0.19713433 0.005769808 -0.0148393735 -0.037717372 -0.076619215 -0.11850732 -0.058543358 0.07162811
0.0076025142 -0.023963727 -0.0579104 0.10413287 0.013284361 0.0543878 0.111547485 -0.0043425043

shrink.bias f4 [12]
00000000: 8836 743e fa5a 833d 6023 243e 029a 50be
00000010: 71dc 573e bded 07be 3292 9a3d c5b3 503d
00000020: 9be6 5ebe 70c3 78bd 632b 1e3e 4030 b0bd
0.23848927 0.06413837 0.1602912 -0.2037125 0.21080185 -0.13274284 0.07547416 0.05095269
-0.21767657 -0.06073326 0.15446238 -0.08602953

activation_2.weight f4 [12]
00000000: ecec 213e 31aa 7f3f 04aa 453e 39e2 803f
00000010: 3aa3 383e bfd5 7e3f 8645 813f 1f74 143e
00000020: 2a23 803f 3242 6b3f eb16 163e 69b8 433e
0.15813035 0.99869066 0.19303137 1.0069038 0.18031016 0.995449 1.0099342 0.14497422
1.0010731 0.9189788 0.1465718 0.19113316

map_1.weight f4 [12, 12, 3, 3]
00000000: c229 89bd 1228 393e d69a cebe 4b7a c83e
00000010: a0ce 8a3e d011 cf3d 28bb e43c 9bd6 1f3d
00000020: 74ec 88bd 0a84 ad3d d2cf 18bc 2de4 003e
00000030: 53f5 7bbd 8996 b6bd f1be 18be fcca 6f3d
00000040: eac8 35bd 062a 9c3d 4e76 9cbd 4e96 f4bc
00000050: 572c a23b ae26 103d 3d4d 2fbe 6078 a0bd
00000060: d444 b9bb 32cb 6f3e 29ba 7e3c f971 47bc
00000070: 26e9 85be 9ec5 b63d 666a 5abd 6f6c 913d
00000080: 8d70 13be 56ff d5bb 8baa 0e3e 7785 1fbc
00000090: a926 213e 9213 b3bd 2758 22be f875 5e3c
000000a0: e9a2 9cbc 87fc 803d e7c3 963d 1089 8cbd
000000b0: 04c9 6fbd 83b5 bc3c a916 103e be56 793d
000000c0: 9373 053e 9450 023d 3c9e 40bd d5a5 24bd
000000d0: ed7d 1f3d 0b4a a73d 549e e63c 2931 d7bd
000000e0: 12f6 d0bd 4c13 8fbd 277d d23c c112 a8bb
000000f0: 6623 b23c cdce 33bd 3de1 843d 3d9d 19bd
00000100: 45aa 2a3e f48d a43f 952e 733c f24b 4bbe
00000110: 19fe 96be 268c a8bb f3f3 8f3d 85d3 ca3e
00000120: 9473 2abd 5329 613e 3329 e83b 66b2 58bb
00000130: 7497 e5be 015a 563e 9bc1 053d 86cf ca3d
00000140: af03 2bbd 6308 82bd c444 13be 97f4 1dbd
00000150: ea60 f23c bb02 6f3e 59aa acbd cef0 16bd
00000160: d2c5 88bd bced 1f3d a285 3f3d 9a56 c8be
00000170: 4179 b93d c9bc e8be ae67 4cbe f917 553c
00000180: d386 d83d 7145 12bd 0404 bd3e 1a6f 49bd
00000190: 0d9f 203e 3070 523d e531 123e faa2 ae3d
000001a0: 6c53 d93c f555 053e 86b6 3e3d 880d 7c3d
000001b0: 5c0a 45be 89b2 06bd 2e3a 903d d2ec a53e
000001c0: 6540 25be 32ce 313e 1882 d13d 50ee 03be
000001d0: 5c07 56bc 7944 033e 881a 3a3e c4d6 743d
000001e0: f837 d9bd d628 76be 569e 63bd 9853 823d
000001f0: 9127 173d f6fc 3d3d e86c 1d3e 8eb6 483e
00000200: 53a8 6b3d 76cf 11be ed81 4d3e 5ec0 263d
00000210: 9e87 58be 34b6 36bd 63c3 033c 808f 513c
00000220: b2bd 16be 5dba dd3d 8cfe 9abd 3283 463e
00000230: ba0d bfbd 8391 c03d 5866 823c 67e9 14bd
00000240: 20a9 523e 0f5e 2c3e 672d 8cbd 901e b6bc
00000250: fe8e 68ba 1453 9f3d c338 c13d 0e72 79bd
00000260: 2957 91bd aa76 82bc ee1b 9fbd 85de fa3c
00000270: c666 33bd a62c be3e 01b8 0fbe 294d 813d
00000280: 2378 bb3d 55a9 573d 23cb 8b3d e445 15be
00000290: a62f 3a3d 1e44 b33c d61e 863e 7ff4 52bd
000002a0: 3b2a c3bc fa3b 9abd 55f8 8ebd 971f 253d
000002b0: efab 7e3d 3e83 813b fe8f 023e 5c61 54be
000002c0: b030 c8be ecab cf3d 693a 3d3e 7033 b1bd
000002d0: 0b27 0bbe b3c4 ddbc abd9 4bbd bb75 193e
000002e0: 54de 92bd 7085 aebc 7d25 06bd d5f5 f13c
000002f0: 7b4b 843d eb59 773c 21d1 77be 3f03 123c
00000300: 7106 2d3e 4f6d 2d3e aa21 c9bd d8a3 74bc
00000310: b5a0 02bd b952 0cbb 9229 6d3d a1e2 efbc
00000320: 95ce 3a3d a5fa c0be 2ce3 cd3e 9c7d afbd
00000330: 1b12 88bd 04f7 643e b7fc 0fbe be2b 203e
00000340: 82cc d1bd ddcf 87bd a3a9 183e f3d7 90be
00000350: 6f43 a73d fa06 c5bc e9b7 6bbd 950c 6c3d
00000360: c8fe b3bd 883e 363d 1c9a 903e 45da 30be
00000370: 3588 4d3e 96ec bc3b 02e9 1e3d 3f49 66be
00000380: 93a7 03bd 2c62 0fbe 31af 1a3e 48cb a1bd
00000390: dd31 5a3d d7cd 133e b4e3 023e 9e04 60bd
000003a0: da83 be3b d025 32be 9452 8e3c f6b4 183e
000003b0: 91d5 b1bd 0988 793c 3b38 b93d f02b 183e
000003c0: 6bbb 81be ec29 a7bb 3be1 3f3d 6094 e4bc
000003d0: 62db c1bd fb21 373d 6050 95bc 10ef 973e
000003e0: f380 e8bd 1280 db3d 1880 f6bd 35a3 303e
000003f0: f45e 23bc 5689 d03d 20c3 84bc ed02 073e
-0.06697418 0.18081692 -0.40352505 0.39155802 0.27110767 0.10110819 0.027921274 0.039023023
-0.06685725 0.0847245 -0.009326892 0.12587042 -0.061513256 -0.08915431 -0.14916588 0.05854319
-0.04438106 0.07625203 -0.07639752 -0.029856827 0.0049491334 0.035193138 -0.17119308 -0.0783546
-0.005653957 0.23417357 0.015547314 -0.012173169 -0.2615444 0.08924411 -0.053324126 0.0710076
-0.14398403 -0.0065306826 0.13932244 -0.00973641 0.15737404 -0.08743967 -0.1585394 0.013577931
-0.01912065 0.06298166 0.07361584 -0.0686208 -0.058541313 0.02303577 0.14071144 0.06087374
0.1303237 0.031815127 -0.047025904 -0.040197212 0.03893845 0.081684195 0.028151669 -0.105074234
-0.10203184 -0.069861025 0.025694443 -0.0051291888 0.021745395 -0.043898392 0.06488273 -0.03750347
0.16666515 1.2855821 0.014842649 -0.1985319 -0.29490736 -0.00514366 0.070289515 0.39614502
-0.04161413 0.2198842 0.0070849895 -0.0033065318 -0.44842112 0.20932771 0.03265534 0.09902863
-0.04175156 -0.06349256 -0.14381701 -0.038563337 0.029587228 0.23340885 -0.08430929 -0.036850743
-0.06678356 0.03904508 0.0467583 -0.39128572 0.090563305 -0.45456532 -0.19961426 0.013006204
0.10572591 -0.035710756 0.36917126 -0.04917822 0.15685673 0.05137652 0.14276846 0.08527179
0.026529036 0.13021071 0.046560787 0.061536342 -0.19242233 -0.03288511 0.07042347 0.32407242
-0.16137846 0.17363814 0.102298915 -0.12883878 -0.013063278 0.12819089 0.18174183 0.05977513
-0.10606378 -0.24039015 -0.055570923 0.063636005 0.036902968 0.04638382 0.15373576 0.19600889
0.057533573 -0.14239296 0.20069094 0.0407108 -0.21145484 -0.044607356 0.008042189 0.012790561
-0.147208 0.108265616 -0.07568082 0.19385985 -0.0932879 0.09402754 0.015917942 -0.036355402
0.20572329 0.16832756 -0.06844597 -0.02223137 -0.0008871405 0.07779518 0.094346546 -0.060899787
-0.070967026 -0.015925724 -0.07768999 0.030623684 -0.043799184 0.3714344 -0.14035036 0.06313545
0.09153774 0.052651722 0.06825855 -0.14577442 0.045455597 0.021883067 0.261954 -0.0515027
-0.023823848 -0.07530971 -0.06980959 0.04031333 0.062175687 0.003952413 0.12750241 -0.20740265
-0.39099646 0.10140213 0.18479313 -0.08652389 -0.13589112 -0.027071333 -0.04976813 0.14986317
-0.07171312 -0.021303862 -0.032750595 0.029536167 0.06459709 0.015097122 -0.2420087 0.008911907
0.16896988 0.16936229 -0.09820874 -0.0149316415 -0.031891543 -0.0021411611 0.057900973 -0.02928287
0.04560717 -0.37691227 0.4021238 -0.0856888 -0.06644078 0.22359854 -0.14061247 0.15641686
-0.10244085 -0.06631444 0.14908461 -0.28289756 0.08167159 -0.024051178 -0.057548437 0.057629187
-0.0878883 0.04449323 0.28242576 -0.17270763 0.2007149 0.005765508 0.038796432 -0.22488879
-0.032142233 -0.14002293 0.15105893 -0.07900101 0.05327021 0.1443399 0.12782174 -0.054691903
0.005814058 -0.17397237 0.01737336 0.14912781 -0.08683313 0.015230187 0.09043928 0.14860511
-0.253383 -0.005101433 0.046845656 -0.027902782 -0.09465672 0.04471014 -0.018226802 0.29674578
-0.1135272 0.10717787 -0.12036151 0.17249759 -0.009971369 0.10182445 -0.016206324 0.1318471

map_1.bias f4 [12]
00000000: 4520 6a3c 7bf0 8b3d 5d7d 2a3c 8110 673e
00000010: f73e 053e 0084 1b3e a227 27be d712 7abe
00000020: b6cb 953d 84c7 3a3e ffa1 48bd 0088 f03c
0.01428992 0.068329774 0.0104058655 0.2256489 0.130123 0.15187073 -0.16323712 -0.2442125
0.073142454 0.18240172 -0.048982617 0.029361725

map_2.weight f4 [12, 12, 3, 3]
00000000: 046c f43c 8508 a6bd 32bd 06bc b676 0fbe
00000010: 8616 263e d989 f1ba 889e 313e cb86 01bd
00000020: 92b2 e33d 94cb 5abd 81d0 e93d f316 a6bd
00000030: e6e5 d53d 6cec 28be 8ae4 aa3c 0780 c63d
00000040: e090 5c3d 2bd3 8fbd 0845 48be c265 66bd
00000050: 8679 d43c 1149 853e 2e02 b5bd 78cd e6bd
00000060: 2ee3 283c eacd 173e 6e2a 0fbd 6b51 2f3e
00000070: b233 343c 259b d6bb 3aec a9bd 9466 123e
00000080: 8aa2 aa3b ab19 a53d c29b 853c ed62 433d
00000090: 6edd aebc f3c7 4abd 7781 283b 0ad6 8abd
000000a0: 0992 2d3e 551a 07bd bff8 003e 1c8d 20bd
000000b0: 7afa 673c 16b2 13be 02ed acbd a01a 1d3c
000000c0: 8ec6 5d3d 4cce 81bc 8b84 a93d c793 dc3d
000000d0: 005a a2bd f94a a83b aaf0 39bc 5c6b bcbe
000000e0: 838f 583d dd4a 013e f860 f03d 40ac 48be
000000f0: 42fd 863d 5bcb f9bd 69de 2d3d 9c54 d63d
00000100: 5314 163e f60b 043d 5a7b 84be 0424 823e
00000110: 1a91 8d3d 1c4f 213d 0cbe 93bd 45ec c83d
00000120: 662d d8bc 112c 123e f934 b83d aa08 b03e
00000130: 9dd7 17be a9e3 1dbd 0436 27bd 783c 4e3e
00000140: 7383 b9bd 4386 373d cf48 c0bd 0e83 30bd
00000150: d3f8 583b 495d afbe 6e8e 88bd 36f4 883c
00000160: c4e6 42bd a8f5 633d 5715 7dbd 4143 24bd
00000170: 1541 a93c e503 8fbd f27e 533d e4a1 8e3c
00000180: 7821 0d3e dd3c 8c3d 208e df3d 5e67 e2bd
00000190: 0935 17be c0c9 9bbc 4744 b53d 8068 0b3e
000001a0: e8cb 76bd a705 99bd 8e70 143e f90c 08be
000001b0: 8e05 213e e432 59be 6cf8 53bb 8541 b7bd
000001c0: c574 e0bd 5677 8b3d 2ccb 333d 0f57 8cbd
000001d0: 1a3b c8bc 0dfe 983d 5141 383d 2665 213d
000001e0: 1d75 3b3d 6ce9 78be fb4a b93d f2e2 a7bd
000001f0: 8b4d 1e3d 1632 c23c 40f7 d3bd d05d 043e
00000200: 45ca 873c bfb1 5e3d cdae b13d 0038 b23d
00000210: dc2d 03be 9013 be3d db7b 5abd 34b7 7abe
00000220: b924 babc bd0f 443d b4a0 b53c e259 cebd
00000230: b4a9 33bd eadd 6c3d d7a0 ca3d 9497 603d
00000240: a41c 7e3e 4560 ca3c 01d3 9bbc 19d0 653e
00000250: 6b5c 34bd 2944 31bd 92a1 8a3c 0a0a b7bd
00000260: 5e64 213d 1597 86be 3c03 023d 9d48 19bd
00000270: f969 7e3e 9426 0d3e 086c 5a3d 1664 3fbe
00000280: f5cc bfbc ba77 48bc 2bd7 4a3e eace 21be
00000290: 512d 143d 4a32 943e 4935 5cbe 4e0a 88bd
000002a0: 6c19 36be cdad 7b3d 87b5 ee3d ba2f b53c
000002b0: b891 f13d fbac b3bc d7e6 663d d494 123c
000002c0: 2cc0 bdbd 5f0f fd3d 5575 a03d 7798 1e3d
000002d0: 8baf 60be 3e47 c03d 00c6 82bc d4c5 443e
000002e0: a602 2cbe a6a7 c7bd ec28 9ebd 467d 873d
000002f0: 0702 583c f5e1 6abd 04cc 54bd 9b73 c8bc
00000300: d989 7c3e 1021 b03c 1b42 dfbc 3a99 d03d
00000310: 7936 3b3e e2be a9bc 98d7 7e3c e87a d8bd
00000320: 5453 f43c a5e0 983d a48d 823e 028c debd
00000330: 6841 eabc 1ad1 b1bd abeb cbbd 4e23 dcba
00000340: 90a1 4c3c e44f e53d 2acd 72bd 97e3 75be
00000350: 3249 6a3e 7446 bd3c 422c 16bd 29ae f7bb
00000360: feb9 02be de46 4a3c 4f21 b7bc 3ebe a2bc
00000370: 838a 2cbe af3c 7d3d abcb 9e3d 8704 c5bd
00000380: 85cd 733d a133 d6bc 4ba6 853d e5b5 57bb
00000390: 876b cebd e103 fcbd 1491 3b3d 3bb7 d8bc
000003a0: 1c1e 193e 1507 1ebb 89b3 e83d fc42 f3bd
000003b0: 867e 323c 421c 243e 4413 c53d 739a 88bd
000003c0: 711f 203d 2f32 013e 2e94 c4bd 366f 09be
000003d0: 3b58 cd3d eb96 f9bc 6dee babd 06eb 51bd
000003e0: 6c34 253e 001e 80bd 97a0 51bc e23b c73c
000003f0: 8a72 b7bb 8d2d 3a3d bc33 5cbd 104a 713c
0.029836662 -0.08107094 -0.008223819 -0.14010128 0.1621953 -0.0018427923 0.17345631 -0.03162269
0.11118044 -0.053416803 0.11416722 -0.08109846 0.1044424 -0.16496438 0.020860929 0.09692388
0.0538491 -0.07022699 -0.19557583 -0.056249388 0.025936853 0.26032308 -0.08838306 -0.11269659
0.01030807 0.14824644 -0.034952573 0.17120902 0.010998653 -0.0065492564 -0.0829701 0.14296943
0.0052073644 0.080615364 0.016309623 0.047701765 -0.02134582 -0.049507093 0.0025711933 -0.06779106
0.16950239 -0.032984097 0.12594889 -0.039197072 0.014158839 -0.14423403 -0.08443643 0.009588867
0.054144435 -0.01584544 0.08277234 0.10770374 -0.079273224 0.0051358906 -0.011348883 -0.3680066
0.05287124 0.12626214 0.11737245 -0.19596958 0.06591274 -0.1219699 0.042448435 0.10465357
0.1465619 0.03223797 -0.2587536 0.25418103 0.069124416 0.039382085 -0.07213983 0.0981069
-0.026388835 0.14274622 0.08994479 0.3438161 -0.14828344 -0.03854719 -0.040822998 0.20140254
-0.09058275 0.044805776 -0.09388887 -0.043093733 0.0033107295 -0.34250858 -0.06667791 0.016718011
-0.047583356 0.055654198 -0.06178793 -0.0401032 0.020660916 -0.06983165 0.051634736 0.01741118
0.13782299 0.06847546 0.1091578 -0.11054872 -0.14766325 -0.0190171 0.088509135 0.13614082
-0.060253054 -0.07471781 0.14496061 -0.13286199 0.15724775 -0.2121082 -0.0032344116 -0.08948044
-0.10959772 0.06809871 0.04389493 -0.068525426 -0.024442244 0.07470331 0.044984166 0.039403103
0.045765985 -0.24307793 0.090475045 -0.08197583 0.03864817 0.023705523 -0.103498936 0.12926412
0.016575942 0.05436873 0.08675919 0.087020874 -0.12810463 0.09281075 -0.053340774 -0.24483949
-0.022722589 0.04786657 0.022171356 -0.100757375 -0.043863013 0.05782882 0.09893959 0.054832056
0.24815613 0.024704108 -0.019021513 0.22442664 -0.04403345 -0.043277893 0.016922746 -0.08937462
0.03940236 -0.2628714 0.031741366 -0.037422765 0.24845113 0.13784248 0.053325683 -0.18690524
-0.02341316 -0.012235576 0.19808643 -0.15801588 0.03617603 0.28944618 -0.21504702 -0.066425905
-0.17783135 0.061445046 0.11655717 0.022117484 0.11795372 -0.02193307 0.05637249 0.008946616
-0.092651695 0.123564474 0.07834879 0.03871962 -0.21941964 0.09388588 -0.015963554 0.1921609
-0.16797885 -0.09748773 -0.07722649 0.06615691 0.013184077 -0.057344396 -0.051952377 -0.024469187
0.2466196 0.02150014 -0.027253201 0.10185476 0.18282498 -0.020720903 0.015554331 -0.105703175
0.02982489 0.074647225 0.25498688 -0.10866548 -0.028595641 -0.08682461 -0.099570595 -0.001679519
0.012489691 0.111968786 -0.05927769 -0.240126 0.22879484 0.023104884 -0.0366633 -0.0075586033
-0.12766263 0.012345998 -0.02235475 -0.019866105 -0.16849713 0.06182545 0.0775369 -0.09620004
0.05952217 -0.026147665 0.065258585 -0.0032914814 -0.10079103 -0.12305427 0.045792654 -0.026454559
0.14952892 -0.0024113108 0.113623686 -0.11878011 0.010894423 0.16026405 0.09622815 -0.06670084
0.039092485 0.126168 -0.095985755 -0.1342133 0.10026594 -0.030467471 -0.09127507 -0.051249526
0.16133279 -0.06255722 -0.012794635 0.024320547 -0.005598371 0.045453597 -0.053760275 0.0147271305

map_2.bias f4 [12]
00000000: a4b9 2d3c 3166 79bc 5d07 e8ba bb28 1dbd
00000010: 1a99 3f3d 91c6 89bc 8365 243c 6a32 073c
00000020: a6ed 4fbb bd7c 863b 6156 f4bc 8fed b6b9
0.010603342 -0.015222118 -0.001770239 -0.03836892 0.04677687 -0.016818317 0.010033968 0.008251766
-0.0031727343 0.0041042254 -0.029826345 -0.0003489074

map_3.weight f4 [12, 12, 3, 3]
00000000: 3578 0dbe 9c4b f43d 2aff 75bd 9fc5 21be
00000010: 4784 513e b50b b63d d891 4e3d 92a3 123e
00000020: 9bae fe3c 4523 0cbe 7b82 783e 6435 c7bb
00000030: bc4b 1abe 011a 89bd 5df2 033e 7c43 663c
00000040: 5fda 4abd 3ada 323d 63ff 183e dfb4 9fbd
00000050: c273 10be 769c 72bd f59a 0abe 032f e6bd
00000060: b925 76bc da20 dd3d 1211 23be 283a 4abd
00000070: 1b13 4f3d 96d9 c1bd bfb8 b63d 6a21 ab3e
00000080: c264 72bd 9b33 d53d 4d18 10be 9d04 b9bd
00000090: 94d4 4e3e 75a7 8abd 7c7d ea3d f584 79bd
000000a0: e75f 7cbe 32d8 503d 8932 973c 1354 873d
000000b0: 7089 8e3d 8357 493c 273c c8ba a4b7 183e
000000c0: 3775 45be 2847 44be a6f9 453d 3508 383e
000000d0: 56c1 4e3d c51e 893d e41c 2bbe e2b2 d13c
000000e0: 3472 883d 3b45 44be 9752 873e 0432 ee3c
000000f0: a4ce 6abd d79c 38bd 172e 043d 4823 073d
00000100: 0015 dfbc 0548 9cbc 94fa 9c3d d5de 76bd
00000110: 6b5d 523d 83d9 a8be cbc9 403d b3bc 3bbd
00000120: b4a4 2c3d 96a2 0abd 6ea9 633d 8b56 2dbd
00000130: ccb9 ccbd 6447 e73d e446 33be 22ac c83d
00000140: ccae 053e e2b5 32be 72c7 db3d 072d 2bbe
00000150: 7efd 0bbe c1bf c83e 43f2 54be c7d2 a1bc
00000160: 80a4 903d 42c9 33be 54b4 5cbd 424e a3bd
00000170: 015b 413e 2408 783e 489c 6d3e 2867 44bd
00000180: dd2d b13c 8584 383d da21 263e ddf2 8d3c
00000190: a82b 66bd ca96 31bd 5f54 ac3e 4d62 cdbe
000001a0: fa0e c43d 422e 74be d0bf 313e 6d55 debd
000001b0: 4050 02be 4569 77be 1ada 52bc 3bc4 e5bd
000001c0: 4d4c 38be dec7 953e ff40 3a3d 500f 1b3e
000001d0: 272b 823c 7be6 5a3d 7109 f23d 7762 973d
000001e0: 39e3 78be e14e b7bd c3cc e33d 68db 273d
000001f0: d404 5bbd 41d0 3c3d f3ce 4ebc a9e5 513c
00000200: d5f2 31be 034b 08bd 2c20 223e bdee 063e
00000210: 0f46 b0bd f347 a2bd adc0 eabd ae5e 0bbe
00000220: b6d9 1e3e d361 eebc 119a 453e 532c 933c
00000230: 2df4 47be cc45 85bc e0a3 84be 4cf6 193a
00000240: 01d6 f3bd e8eb e4bd 9443 8b3c 6bc2 3abd
00000250: 46fa 88be f1e5 7f3d 6d1c e4bc 5464 0f3e
00000260: a36c 123b 8ded f03c 8bce 37be f275 b6bd
00000270: 04f1 903d 4453 fcbb 254b 8bbd 9d49 573d
00000280: a895 bfbd 3cd8 30bd 4df4 91bd dda4 32bd
00000290: d588 8bbd 3a78 193d ed74 0f3e 938a 44bd
000002a0: b7eb 193d 47ca ca3d 76af 223d c158 eebd
000002b0: ab49 453e 825b d9bd b6f0 5abd 8faa 5e3d
000002c0: cc0f 20bb b645 b7bd 6860 223d 6e8f 02bd
000002d0: f6da 61bd 99ec 083d 8665 12be 735d 293e
000002e0: e725 cd3d 4f93 ec3d 3f4b 4a3e 5b64 a13e
000002f0: f899 563d d8f9 1d3e 4270 273e 65c4 5b3e
00000300: 15dd b93d 40af aa3d 4fcb 503a 244b 2e3c
00000310: 8d53 f83d 924c 513d 6906 413e 1c61 b8bd
00000320: 2130 59be 6f0a fc3c 1813 f8bd 4dc0 183e
00000330: f07e faba 8c27 6dbc d091 07bd f435 503e
00000340: e4fd 063e 7ff0 833e e90c e03d be3d 0dbe
00000350: 4894 62bd 1fc4 433d f552 733d c0ea f2bd
00000360: f14c 09be 511f b13d d3ff ee3c c0cb b03c
00000370: b507 763d 13b4 693c 88fd e6bc 880c 243c
00000380: a00f c3bd 2602 27bc f990 8cbc 178b a6bc
00000390: f52e 593e 9163 a5be 35e4 c7bc f111 5cbd
000003a0: a82c 803e 21f5 6b3d 671b 95bc 2c4d 663d
000003b0: c746 333c 4de6 e7bd e64f be3c 2aa3 58bc
000003c0: 9328 953c 66f3 a7bb 3f78 3f3d fda1 b0bd
000003d0: d4c4 5a3e 234e b9bb 28bc 0a3c 8ac0 9b3d
000003e0: 165f ce3c 2bf1 8c3d d20c 273e 96f3 2fbd
000003f0: b979 88bd aea1 943c 6454 8fbd 37b7 ee3d
-0.13815387 0.11928484 -0.060057797 -0.15798043 0.20460616 0.08888952 0.050432056 0.1432021
0.031089118 -0.1368533 0.24268524 -0.0060793627 -0.15067953 -0.06694413 0.12885423 0.0140541755
-0.04952466 0.04366515 0.14941172 -0.0779817 -0.14106658 -0.059231244 -0.13535674 -0.112394355
-0.015023642 0.107972816 -0.1592448 -0.04937187 0.05055533 -0.09465329 0.08921956 0.3342393
-0.05917812 0.104102336 -0.1407177 -0.09034083 0.2019828 -0.06770221 0.114497155 -0.060917813
-0.24645959 0.05098743 0.018456714 0.06607833 0.06959808 0.012288931 -0.0015276716 0.14913803
-0.19282995 -0.19167769 0.048333786 0.1797188 0.05047735 0.06695322 -0.1671024 0.025597993
0.066624075 -0.19167034 0.264302 0.029076584 -0.057325974 -0.04507145 0.032270517 0.03299263
-0.027231693 -0.01907731 0.076649815 -0.060271103 0.05135862 -0.32978448 0.047067445 -0.045834254
0.04214926 -0.03384646 0.055581503 -0.042318862 -0.099963754 0.112929136 -0.17507511 0.09798457
0.13054961 -0.17452195 0.107314005 -0.16716395 -0.13670918 0.39208797 -0.2079554 -0.019753827
0.07062626 -0.17557243 -0.05388291 -0.07973911 0.18882371 0.24221855 0.23204148 -0.04794994
0.021628315 0.045048255 0.16223851 0.01732772 -0.056193978 -0.043356694 0.3365812 -0.4011406
0.09573169 -0.23845771 0.17358327 -0.108561374 -0.12725925 -0.24161251 -0.012869382 -0.112190686
-0.17997856 0.2925405 0.04547214 0.1514256 0.015889717 0.05344246 0.11818207 0.073918276
-0.24305429 -0.08950592 0.111230396 0.040980726 -0.0534714 0.046097044 -0.012622583 0.012811103
-0.1737779 -0.03327466 0.15832585 0.13177009 -0.086071126 -0.079238795 -0.11462531 -0.13610336
0.15512738 -0.02909938 0.19297053 0.017965471 -0.1952674 -0.016268633 -0.25906277 0.0005873188
-0.119060524 -0.11177808 0.016999997 -0.045595568 -0.26753443 0.06247515 -0.027845586 0.14003116
0.0022342585 0.029410148 -0.17949884 -0.08909215 0.0707722 -0.0077003557 -0.06801442 0.052560437
-0.093547165 -0.043174967 -0.07126675 -0.043614257 -0.06813208 0.037468173 0.14009447 -0.047983717
0.03757831 0.099018626 0.039718114 -0.11638022 0.19266383 -0.10613157 -0.053452216 0.054361876
-0.0024423478 -0.08948843 0.03964272 -0.031875066 -0.055140458 0.033428762 -0.1429654 0.16539554
0.10016995 0.115515344 0.19755267 0.31521878 0.05239293 0.15427339 0.16351417 0.21461637
0.09075371 0.083342075 0.00079648657 0.010638032 0.12125311 0.051098414 0.18850102 -0.09002897
-0.21209766 0.030766694 -0.12113017 0.14917107 -0.0019111317 -0.014474761 -0.033098042 0.20333081
0.13182789 0.2576942 0.109399624 -0.13793084 -0.055317193 0.047794458 0.059405286 -0.11861181
-0.13408257 0.08648551 0.02917472 0.02158153 0.060065944 0.014264124 -0.028197065 0.010012753
-0.095244646 -0.010193383 -0.017158972 -0.020329995 0.21209319 -0.32302526 -0.02440081 -0.053728048
0.2503407 0.05760682 -0.018201543 0.05622594 0.010942168 -0.11323223 0.023231458 -0.013222495
0.018207824 -0.005125451 0.046745535 -0.08624647 0.21364146 -0.0056550666 0.0084677115 0.07605083
0.025191825 0.06881937 0.16313484 -0.04295691 -0.06663842 0.018143501 -0.06998518 0.11656039

map_3.bias f4 [12]
00000000: f8e7 c83b 15b6 09bc 0c53 4fbc 5b80 44ba
00000010: 6751 d13b f5dc bf3c d7d9 2439 eb8f 4c3c
00000020: 5029 aa3c 56a4 86bb 2e3b 27ba ad56 df3b
0.0061311685 -0.008405228 -0.012654077 -0.0007495933 0.0063878777 0.02342079 0.0001572141 0.012485485
0.020771652 -0.004108946 -0.0006379363 0.0068157525

map_4.weight f4 [12, 12, 3, 3]
00000000: 0b27 e4bb 5674 a9ba db94 183d 87ca b23d
00000010: d27b 9bbe e889 963d a72d d5bc fd75 f23c
00000020: f1c3 9fbc cd3f e03b 4370 7fbc 141f d13b
00000030: 3e72 dbbd e866 613d 2dc8 dcbd 9605 ea3d
00000040: 85bf 5d3d faed 09be bb8f 273d 56c4 4a3c
00000050: d236 debc e59a ab3d b19f 72be 1b6e c13d
00000060: fab9 063e ea31 603d dd1b b4bd 3329 b4bc
00000070: dcd1 38ba 6d58 033d 2698 683b c87a aebc
00000080: 3e9f f83d 62c4 48bd 73f5 403e 3094 afbd
00000090: 94d4 5d3d 8d83 593d 4564 aa3c 43f2 ecbc
000000a0: 7cc2 8ebd ee29 3ebe 2b5f 443d c301 57be
000000b0: a46e fe3c 84b9 b73c c378 873c 1297 a43c
000000c0: a9ec a2bd 47c7 bc3d ecad abbd 5a7d d7bb
000000d0: b4d9 613d a2a6 d8bd 2125 5abd ecbe 0c3e
000000e0: a415 9d3d faca a03d 4842 48be 5b3f 183e
000000f0: 5eb5 9bbc 8d32 43bd 7589 c73c c0c9 25bd
00000100: 8e80 823d 81d3 75bd e92a 10be 4e68 19be
00000110: 4cf2 f63d 7055 343d 6703 383e b2db 4e3d
00000120: e601 8c3d aa53 113c 7d70 7b3c 4d52 13be
00000130: 04d3 2bbe fa12 b2bd 5d39 733d 2828 8cbd
00000140: bc40 f63d 97ce 053d ffea 55bd db09 6a3d
00000150: 43cf 2c3d 3453 36be 290b 6abe 148e 05be
00000160: 7366 24be 7515 0f3d d76c 273c d7e9 84bd
00000170: be0c 333d 9786 cd3c 857e cd3e d84c 353c
00000180: 1ea1 50bc c91f 7abd 2789 c33a 7346 89ba
00000190: fb30 e6bd f547 543d c1eb 3ebe eaba 283d
000001a0: e035 153e b27b 28bc 9892 283d 497c 123b
000001b0: a106 92bd 3705 183d 5363 473d d995 863d
000001c0: 1a13 60be da92 89bd ca51 ce3d 192f 273d
000001d0: 95fe 873d dce4 78bd fb9f 48be e74c b0bc
000001e0: d36d c73d 5fb6 f03e 8c3e ab3d c6fd 60be
000001f0: 3147 17bb 79f7 493d 538f 473d 801b 4dbd
00000200: c3bc ee3d c372 dfbd 71f4 1dbe 08bf 08be
00000210: 71f7 573c 4f22 95bc 211e 74bd ee48 3ebe
00000220: bf65 53be 36b3 e93d 94d7 0d3b 215d 52be
00000230: 090f 0abc f9e8 2ebd 5003 333e 8dfd 013e
00000240: 4680 6bbc 3a66 adbe 1c8b 833d f141 f2bd
00000250: 77cd c73d ef9f ee3d c2cc 1fbd 9a81 eabc
00000260: bb2f 04be 7850 92be e3e6 193e 9f7b 8b3c
00000270: 63ae 9b3c 3be7 7abe 0ab2 06be 3ca2 8d3c
00000280: e1f8 2bbe c0b7 0e3b 8d52 f3bd 2d7c eebd
00000290: 7442 4a3d c56c 433e dda9 02bf cf15 893e
000002a0: 98c1 003e 1e9a 57bd accb 193d 8145 f23c
000002b0: 5d02 eabd 48a1 8d3c 10ad 62be 5024 483e
000002c0: 22b5 33be bc6a dabc 9c8b 98be 996e 2b3d
000002d0: 1ac1 40be c13d c4bd 0c2b a7ba 3174 6abe
000002e0: 7079 d5be beb5 a03d 6f35 66be 5d73 98bd
000002f0: 1005 afbd 0a62 273e 68a2 e4bb f860 97bb
00000300: 0e86 8e3e bbb5 2b3e 797a 8a3d e528 60bc
00000310: cbfe 14be bee9 32be b2a0 8a3c ec33 90be
00000320: 0821 2c3d 01e4 383e bb6d e3bc a261 04bd
00000330: 7b9d 453e d7c9 babd 2377 203d c805 b8bc
00000340: 9436 2f3d 6b97 523d 4d58 c8be fefe b53d
00000350: 521c 853e 7e98 6cbd ce84 f4bd 2303 573d
00000360: 47ac 4d3c 342c a9be 344f 1cbe 92dc b8bd
00000370: 1c04 813e 63f2 2b3c 66b2 063c d839 93bd
00000380: 702e b63d 9542 e0bb a9cc ad3c df35 283e
00000390: 7730 63bb 3fc4 8abe 2f8a 80be 13d7 8c3d
000003a0: 8d5e f93c 7e3d a8bd 62ba 8b3d 210c 513e
000003b0: 1ea2 2d3e 8a61 d1bd f9c1 4dbe 575d adbd
000003c0: b9c6 09bc 9dbd 953d e09c 88bc 1969 a93c
000003d0: 1935 163e eeaf 08bd f406 063e 81c1 ecbc
000003e0: c907 3cbe e7c9 6bbd d793 b73d 5be7 17bd
000003f0: b488 763d 0c75 f63e ee52 bbbd 46c7 e0bc
-0.006962662 -0.0012928348 0.037251335 0.08730035 -0.30367905 0.07350522 -0.026022745 0.029597277
-0.019502612 0.006843543 -0.01559073 0.0063818786 -0.10715149 0.05502978 -0.10780368 0.11426847
0.054137725 -0.13469687 0.040908556 0.012375912 -0.02712575 0.08379153 -0.2369373 0.09444829
0.13156882 0.0547351 -0.08794377 -0.021992302 -0.00070503145 0.03206675 0.0035491078 -0.021298781
0.12139748 -0.04901541 0.18843631 -0.085731864 0.05415781 0.053103972 0.020799765 -0.028924113
-0.06970689 -0.18570682 0.04794232 -0.20996766 0.031058617 0.022427328 0.016537076 0.020091567
-0.079552956 0.09217697 -0.08382782 -0.0065762224 0.05513926 -0.10578658 -0.053258065 0.13744706
0.07670143 0.07851215 -0.19556534 0.14867918 -0.019007381 -0.04765563 0.024357537 -0.040475607
0.06372176 -0.06001616 -0.14078869 -0.14981195 0.12057933 0.044026792 0.17970048 0.050502487
0.068362996 0.008870045 0.0153466435 -0.14386864 -0.16779715 -0.08695026 0.059380878 -0.06843597
0.12024066 0.032667723 -0.052226063 0.057138305 0.042189848 -0.17805177 -0.2285582 -0.1304248
-0.16054706 0.034932572 0.010218821 -0.06489914 0.043713324 0.025088592 0.4013559 0.011065684
-0.012733726 -0.06106547 0.0014918194 -0.0010473266 -0.11239811 0.051826436 -0.1864462 0.04119388
0.14571333 -0.0102833975 0.041155428 0.0022351912 -0.071301706 0.03711435 0.048678707 0.0657155
-0.21882287 -0.06717463 0.10074194 0.0408164 0.066403545 -0.060765132 -0.19592278 -0.021521045
0.09737744 0.47014138 0.08361539 -0.21971807 -0.0023083205 0.049308274 0.04872067 -0.050075054
0.11657097 -0.10910561 -0.15425278 -0.13354123 0.013181553 -0.018204836 -0.059599046 -0.18582508
-0.20644282 0.11411135 0.0021643387 -0.20543338 -0.008426436 -0.04270265 0.17481732 0.12694378
-0.0143738445 -0.33867055 0.064230174 -0.118289836 0.09755986 0.11651599 -0.03901363 -0.028626252
-0.12908833 -0.28577018 0.15029483 0.01702672 0.019004053 -0.2450227 -0.13153854 0.017289273
-0.16794159 0.0021777004 -0.1188098 -0.116447784 0.04937978 0.19084461 -0.5104044 0.2677445
0.1257385 -0.052637212 0.037547752 0.029574158 -0.11426232 0.017288819 -0.2213633 0.19545102
-0.17549565 -0.026662223 -0.29794014 0.04185352 -0.18823662 -0.09582091 -0.0012753918 -0.22895886
-0.41694212 0.078471646 -0.22481321 -0.07443879 -0.085458875 0.16345993 -0.006977368 -0.004619714
0.2783665 0.16768543 0.06761641 -0.013681625 -0.14550321 -0.17471978 0.016922329 -0.28164613
0.04202369 0.18055727 -0.027762285 -0.032319672 0.19298355 -0.09120529 0.039176118 -0.022463694
0.04277666 0.051413935 -0.39129868 0.088865265 0.2599817 -0.057762615 -0.11939393 0.052493226
0.012553281 -0.33041537 -0.15264589 -0.090264454 0.25198448 0.010494801 0.008221244 -0.07188767
0.08895576 -0.0068438747 0.021215754 0.164268 -0.0034666338 -0.2710285 -0.25105426 0.0687696
0.030440593 -0.08214854 0.06822659 0.20414783 0.16956374 -0.10223682 -0.20093526 -0.08465069
-0.008409196 0.073115565 -0.016676366 0.020679997 0.14668693 -0.033370905 0.1308859 -0.028900864
-0.18362345 -0.057565596 0.08963745 -0.037085872 0.060188964 0.48136175 -0.09146677 -0.027438771

map_4.bias f4 [12]
00000000: b733 ad3b 93c4 3fbe 4089 bdbc ba0e 31bd
00000010: 413a d8bc d4ec d2bc c697 9fbc f811 2ebd
00000020: 9a9c 5fbd 3629 eb3c 56f7 1abc c872 f0bb
0.005285706 -0.18727331 -0.023136735 -0.043226935 -0.026394965 -0.025747694 -0.01948155 -0.042497605
-0.054592706 0.028706174 -0.009458384 -0.0073379017

activation_3.weight f4 [12]
00000000: c2ab 7f3f 39e1 973e db2e e53e 946e 183f
00000010: c37c 2f3f f8fc 123f 02ee 563f cf4f 893e
00000020: 5673 453f 02e6 7e3f 9725 6b3f 4ac3 7f3f
0.99871457 0.2966402 0.4476231 0.5954373 0.68549746 0.5741725 0.8395692 0.26818702
0.77129114 0.99569714 0.9185423 0.9990736

expand.weight f4 [56, 12, 1, 1]
00000000: 6d3c 1d3e f264 86be fa0f 9e3e 834d 04bf
00000010: 32a1 e1bd 36cd e03e 0137 843e 0645 5a3e
00000020: 5fe8 9f3e 5511 3bbe 24f4 653c ff50 ffbe
00000030: 1caa b93d 7a91 e7bd 97d8 95be 3bac 82bd
00000040: b02a c33c 85e8 f33d 091d 2abe 63ba 253e
00000050: 3461 f63d 7a8b 6c3d 032c e53c fbcb 12bd
00000060: b466 d3bd a3c7 e63e 25c1 513e c967 18bf
00000070: 3d71 473e 35ad ab3c 9ac3 20be 982d 56bd
00000080: 9d29 9c3e 1936 cb3b 8022 ecbd d9df c5b7
00000090: 3039 a43d 91e9 c93e e473 3fbd 5b3c 733d
000000a0: a998 a03e 45df 093d b449 243e 206b b7bd
000000b0: 6cc2 573d 9d83 a63c d7ce 5ebe 1aee 07be
000000c0: ce37 743e 0170 9fbe 41f8 3b3e 4924 f33d
000000d0: 5568 ffbd 5cd1 11be 665f 103e 5ced 3f3d
000000e0: 108f 1d3e 6430 313e 5e68 17be 0b8c fd3d
000000f0: aefb cdbe 5aac eebe 02b9 c4bd 489c 723e
00000100: f70d 57be fa2b 22be 9129 b2bd 6600 733c
00000110: 90d6 0abe fdf2 49bd e9dc 383e ec77 19be
00000120: 24dd c4bd eb80 febd ab5b 013f daf1 383e
00000130: 669f edbd ce90 dcbd 7e6a b83e bad8 7cbc
00000140: 52d7 cb3b 9b4c 80be 830f cebe 1032 d4bc
00000150: d3cf 38be bb68 803e 1491 a73e dc3c fe3d
00000160: 2e63 4dbd e325 8b3d 62ba 33bc 9e76 24be
00000170: e497 4ebe bcda 1bbe 3788 023d e3d7 2bbd
00000180: 908e d5be 5416 633e b40f 6f3d daae 543d
00000190: 53d5 8c3d 5781 7b3e 2d49 b9be 0a33 e73d
000001a0: e2af 8f3e a596 aabc 4ae6 953e aad6 90be
000001b0: 4735 e7bd a6c8 8bbc f09e c33e 895e a63e
000001c0: c9c3 a8bc eff0 03bf 17e8 ba3e c012 bebd
000001d0: c53f 03be ac1b e1bd f8e9 ccb8 45ec 653d
000001e0: 1b1e 023d e8fd 823e 9356 a9bd bef7 af3e
000001f0: 8604 1ebf e2bb 2fbc 18a9 00bf cbae 1abe
00000200: 2178 03be 43e1 453c 9306 bebd c101 9bbe
00000210: 7878 b7be 457c 22be 3853 bb3d f492 63be
00000220: d03d 61bf f052 d03d 2152 0abe 28e1 febb
00000230: 61a0 a63d 5e71 a1bd cf87 f93d a538 77bd
00000240: ef4f dd3e f96f 09be 5eef f73d 8ecf 52bd
00000250: 2120 a13e 45eb b5bd 9531 263e ac0f 09bf
00000260: d200 53be 0dca 9abd c8d8 1dbd 7dd6 5f3e
00000270: ea9c 3d3e bd93 383f d111 c0be a3d6 2b3f
00000280: 7604 54be 9962 c93e 1de2 9a3e 9f9b 92be
00000290: fd10 9b3e 685a 623e ec7f bebd 1730 32bc
000002a0: ee77 243e fad4 753f 604b 2dbd c29d 1d3e
000002b0: c5b0 4a3e 7abf 13be 1a5e eebe e3cc f83c
000002c0: b1e3 4e3e 343b 9c3e bdf8 f23e e149 62be
000002d0: 23c2 80be 5a8d 633e 28e3 0f3e 043e 323e
000002e0: 2756 d93d a752 3cbf 6a02 593e 5dc3 bbbe
000002f0: b4cd 55bf 51f3 0dbe 8872 da3e 9ab1 5cbd
00000300: aa08 c03e de19 1a3f b6f7 6dbc 6b8e 90bd
00000310: 8257 793e 144f 983e 9c5d 20be fc98 8ebe
00000320: f4ad 9fbd 8301 1b3e 8297 413e 8324 a5bc
00000330: 2c35 98bd 6237 613d 5d6b 39bb 14a6 643c
00000340: 9c81 39bc 058b acbd 8056 0c3c 46cf 0ebf
00000350: 2d0a 5e3e 4cb3 9b3c a920 7ebe 45f5 49be
00000360: d83d a43d 2e7e 093e dc63 4abe 7ef7 8e3e
00000370: 4fe4 263e c126 be3d 8c6a c43d 3c96 483d
00000380: 01ec 883e 69f6 b83c 5422 c03d 2ea9 7c3e
00000390: cefe 52bd 11b5 c4be 9068 323c 20b4 1d3d
000003a0: 4ae2 02be ab07 a43d c51c e5bd c40c c43c
000003b0: b776 90bc 438d 8f3d b3c3 1d3e 3ec3 3b3e
000003c0: ae51 083e 0709 18be a850 a2be 0e46 d03e
000003d0: ac17 23bd 51ed babe 3aef 813e c2ca c33c
000003e0: 0bca d63d 11bf 193f 02ef 833e f129 abbe
000003f0: f183 a0bd a613 003f 3362 7a3d 07f3 17bd
0.15355082 -0.2624889 0.30871564 -0.51680773 -0.11017074 0.43906564 0.25823215 0.21315393
0.31231973 -0.1826833 0.014035258 -0.49866483 0.09065649 -0.11307044 -0.29266807 -0.063805066
0.023824066 0.11909584 -0.16612639 0.16184382 0.12030259 0.057750203 0.027975088 -0.035839062
-0.103223234 0.45074186 0.20483835 -0.59533364 0.1947679 0.020956615 -0.15699616 -0.052289575
0.30500498 0.0062015173 -0.11530018 -2.3588467e-05 0.0801872 0.3943601 -0.04674138 0.05938373
0.3136647 0.033660192 0.1604374 -0.08955979 0.05267565 0.02032643 -0.2175859 -0.13274422
0.23849413 -0.3114014 0.1835642 0.11872155 -0.12471072 -0.1424002 0.14098892 0.046857223
0.15386605 0.17303616 -0.14785907 0.12380227 -0.4023108 -0.4661587 -0.096056 0.23692429
-0.21001421 -0.15837088 -0.086993344 0.014831638 -0.13558412 -0.049303997 0.1805302 -0.14987153
-0.09612492 -0.12426933 0.505305 0.18061009 -0.116026685 -0.10769807 0.36018747 -0.015432531
0.0062207365 -0.25058445 -0.4024621 -0.025902778 -0.18048029 0.25079903 0.32727873 0.12413952
-0.050143413 0.06794336 -0.01096973 -0.16060874 -0.20175129 -0.1522016 0.031868186 -0.041953932
-0.4171033 0.22176486 0.058364585 0.051924564 0.06876626 0.24561058 -0.3618864 0.11289032
0.28063875 -0.020823786 0.2927726 -0.28288776 -0.11289459 -0.01706345 0.38207197 0.32494
-0.02060117 -0.5153951 0.36505195 -0.0928092 -0.12817295 -0.10991606 -9.771058e-05 0.056133527
0.031766992 0.2558434 -0.08268466 0.343687 -0.6172565 -0.010725947 -0.50258017 -0.1510574
-0.12838794 0.012077632 -0.09278598 -0.30274776 -0.35834098 -0.15867718 0.09146732 -0.22224027
-0.87984943 0.10172069 -0.13507892 -0.0077783056 0.081360586 -0.07882951 0.121841066 -0.060356755
0.43225047 -0.1342162 0.121062025 -0.05146747 0.31469825 -0.08882765 0.16229852 -0.5353954
-0.20605782 -0.075580694 -0.038536817 0.21859165 0.18516889 0.7210043 -0.37513593 0.67124385
-0.20704827 0.39333037 0.30250636 -0.28634354 0.302864 0.221048 -0.09301743 -0.010875723
0.16061375 0.960281 -0.04230821 0.15392211 0.19793995 -0.14428511 -0.4655617 0.030371135
0.20204045 0.30513918 0.47455397 -0.22098495 -0.25148115 0.2222189 0.14051497 0.1740647
0.106121354 -0.7356362 0.21192327 -0.36672488 -0.83517003 -0.13862349 0.42665505 -0.05388031
0.3750661 0.6019572 -0.014524391 -0.07058414 0.24349788 0.29747832 -0.15660709 -0.27851093
-0.07796851 0.15137295 0.18905452 -0.020159012 -0.07432017 0.054984458 -0.0028292753 0.013955612
-0.011322405 -0.08424953 0.008565545 -0.55785024 0.21683569 0.019006394 -0.24817146 -0.19722469
0.08019608 0.1342704 -0.19764656 0.27923197 0.1629803 0.092847355 0.09590635 0.0489714
0.26742557 0.022578435 0.093815476 0.24673912 -0.051512532 -0.38419393 0.010889187 0.03850186
-0.12781635 0.08009275 -0.11187128 0.023931868 -0.017634733 0.070093654 0.15406685 0.18336198
0.13312408 -0.14847194 -0.3170216 0.40678447 -0.039817497 -0.36509183 0.25377828 0.023900393
0.104877554 0.6005717 0.25768286 -0.33430436 -0.07837666 0.5002998 0.061128806 -0.037097003

expand.bias f4 [56]
00000000: dba2 e73b f1ed 0abc 539c 3d3c 777c 9d3c
00000010: 9f67 f8bc 0c1c 01bc ca4a 04bd a85e 13bc
00000020: 0c2d 583c e138 9ebc 9f38 babc b359 00bd
00000030: 34e7 34bd 2386 c43c 0066 a8bc d10f 2fbd
00000040: 1472 58bc c525 b53b a397 013d c4bd 303c
00000050: a514 7ebc 06f8 433c 090c 6cbd d7b1 9fbc
00000060: 6334 cbbc 3b49 92bc 74a6 61bd c033 a4bc
00000070: fa28 833b 5e1b 6dba af6d 0d3c f939 243c
00000080: 9171 f53b 73a0 443c 9a6d b1bb 7082 043d
00000090: f963 a73a ed65 023d de8d a93b ddaa 8cbc
000000a0: 805c 2a37 915d 2abd 3182 0abd 1e14 fb3c
000000b0: c47a 4cbc c16f 813c 9751 7eb9 03de 263c
000000c0: e25a aa3a c091 fdbc aa96 9ebc ac3a 513c
000000d0: 0862 b0ba d4b9 913a d8f4 52bc ff0f 0c3d
0.0070689744 -0.008479581 0.011572915 0.019224389 -0.030322848 -0.007880222 -0.032297887 -0.008994736
0.013194334 -0.019314231 -0.022732077 -0.031335544 -0.044165805 0.023989743 -0.02055645 -0.042739693
-0.013210792 0.005528184 0.031638753 0.010787431 -0.015507852 0.011960989 -0.057628665 -0.01949398
-0.024805253 -0.017857185 -0.055090383 -0.020044208 0.0040026875 -0.00090449105 0.008632108 0.010023587
0.007490345 0.012001145 -0.005414677 0.032350957 0.0012770883 0.031835485 0.0051743826 -0.017171318
1.0154326e-05 -0.041593138 -0.033815566 0.030649241 -0.0124804415 0.015800359 -0.00024253722 0.010184768
0.0012997056 -0.030953288 -0.019358952 0.012770336 -0.001345695 0.0011118003 -0.012875758 0.034194943
